…
ochs=200, no_cuda=False, log_freq=1, patience=10, num_workers=4, seed=42, weight_decay=0.0, adam_beta1=0.9, adam_beta2=0.999, gpu_id='0', variance=5, model_type='hyperrec', max_seq_length=50, hidden_size=64, num_hidden_layers=1, hidden_act='gelu', num_attention_heads=1, attention_probs_dropout_prob=0.5, hidden_dropout_prob=0.5, initializer_range=0.02, cuda_condition=True, data_file='./data/Sports_and_Outdoors.txt', item_size=18358, checkpoint_path='output/Scale_Sports.pt', same_target_path='./data/Sports_and_Outdoors_same_target.npy')
2025-02-16 11:43:15,579 - HyperRecModel(
  (item_embeddings): Embedding(18358, 64, padding_idx=0)
  (position_embeddings): Embedding(50, 64)
  (item_encoder): TransformerEncoder(
    (blocks): ModuleList(
      (0): TransformerBlock(
        (layer): MultiHeadAttention(
          (query): Linear(in_features=64, out_features=64, bias=True)
          (key): Linear(in_features=64, out_features=64, bias=True)
          (value): Linear(in_features=64, out_features=64, bias=True)
          (softmax): Softmax(dim=-1)
          (attn_dropout): Dropout(p=0.5, inplace=False)
          (dense): Linear(in_features=64, out_features=64, bias=True)
          (LayerNorm): LayerNorm((64,), eps=1e-12, elementwise_affine=True)
          (out_dropout): Dropout(p=0.5, inplace=False)
          (decomp): series_decomp_multi(
            (layer): Linear(in_features=1, out_features=3, bias=True)
          )
        )
        (feed_forward): FeedForward(
          (dense_1): Linear(in_features=64, out_features=256, bias=True)
          (dense_2): Linear(in_features=256, out_features=64, bias=True)
          (LayerNorm): LayerNorm()
          (dropout): Dropout(p=0.5, inplace=False)
          (mask): QueryAdaptiveMasking()
        )
      )
    )
  )
  (LayerNorm): LayerNorm()
  (dropout): Dropout(p=0.5, inplace=False)
  (cross_attens): CrossAttentionBlock(
    (layer): CrossAttention(
      (query): Linear(in_features=64, out_features=64, bias=True)
      (key): Linear(in_features=64, out_features=64, bias=True)
      (value): Linear(in_features=64, out_features=64, bias=True)
      (softmax): Softmax(dim=-1)
      (attn_dropout): Dropout(p=0.5, inplace=False)
      (dense): Linear(in_features=64, out_features=64, bias=True)
      (LayerNorm): LayerNorm((64,), eps=1e-12, elementwise_affine=True)
      (out_dropout): Dropout(p=0.5, inplace=False)
      (mask): QueryAdaptiveMasking()
    )
    (feed_forward): FeedForward(
      (dense_1): Linear(in_features=64, out_features=256, bias=True)
      (dense_2): Linear(in_features=256, out_features=64, bias=True)
      (LayerNorm): LayerNorm()
      (dropout): Dropout(p=0.5, inplace=False)
      (mask): QueryAdaptiveMasking()
    )
  )
  (self_attens): TransformerBlock(
    (layer): MultiHeadAttention(
      (query): Linear(in_features=64, out_features=64, bias=True)
      (key): Linear(in_features=64, out_features=64, bias=True)
      (value): Linear(in_features=64, out_features=64, bias=True)
      (softmax): Softmax(dim=-1)
      (attn_dropout): Dropout(p=0.5, inplace=False)
      (dense): Linear(in_features=64, out_features=64, bias=True)
      (LayerNorm): LayerNorm((64,), eps=1e-12, elementwise_affine=True)
      (out_dropout): Dropout(p=0.5, inplace=False)
      (decomp): series_decomp_multi(
        (layer): Linear(in_features=1, out_features=3, bias=True)
      )
    )
    (feed_forward): FeedForward(
      (dense_1): Linear(in_features=64, out_features=256, bias=True)
      (dense_2): Linear(in_features=256, out_features=64, bias=True)
      (LayerNorm): LayerNorm()
      (dropout): Dropout(p=0.5, inplace=False)
      (mask): QueryAdaptiveMasking()
    )
  )
  (guass): GaussianKernel(
    (W): Linear(in_features=64, out_features=25, bias=True)
    (softmax): Softmax(dim=-1)
  )
  (drop_scale): QueryAdaptiveMasking()
)
2025-02-16 11:43:15,583 - Total Parameters: 1329829
2025-02-16 11:43:56,857 - {'epoch': 0, 'rec_loss': '9.4034'}
2025-02-16 11:44:12,110 - {'Epoch': 0, 'HR@5': '0.0082', 'NDCG@5': '0.0055', 'HR@10': '0.0127', 'NDCG@10': '0.0069', 'HR@20': '0.0224', 'NDCG@20': '0.0093'}
2025-02-16 11:44:12,118 - Validation score increased.  Saving model ...
…
2025-02-20 15:28:46,629 - Namespace(data_dir='./data/', output_dir='output/', data_name='Sports_and_Outdoors', do_eval=False, load_model=None, train_name='Scale_Sports', num_items=10, num_users=35599, lr=0.0005, batch_size=256, epochs=200, no_cuda=False, log_freq=1, patience=10, num_workers=4, seed=42, weight_decay=0.0, adam_beta1=0.9, adam_beta2=0.999, gpu_id='0', variance=5, model_type='hyperrec', max_seq_length=50, hidden_size=64, num_hidden_layers=1, hidden_act='gelu', num_attention_heads=1, attention_probs_dropout_prob=0.5, hidden_dropout_prob=0.5, initializer_range=0.02, scales=[50, 25, 10], start_prob=0.3, end_prob=0.6, cuda_condition=True, data_file='./data/Sports_and_Outdoors.txt', item_size=18358, checkpoint_path='output/Scale_Sports.pt', same_target_path='./data/Sports_and_Outdoors_same_target.npy')
2025-02-20 15:28:49,390 - ScaleRecModel(
  (item_embeddings): Embedding(18358, 64, padding_idx=0)
  (position_embeddings): Embedding(50, 64)
  (item_encoder): TransformerEncoder(
    (blocks): ModuleList(
      (0): TransformerBlock(
        (layer): MultiHeadAttention(
          (query): Linear(in_features=64, out_features=64, bias=True)
          (key): Linear(in_features=64, out_features=64, bias=True)
          (value): Linear(in_features=64, out_features=64, bias=True)
          (softmax): Softmax(dim=-1)
          (attn_dropout): Dropout(p=0.5, inplace=False)
          (dense): Linear(in_features=64, out_features=64, bias=True)
          (LayerNorm): LayerNorm((64,), eps=1e-12, elementwise_affine=True)
          (out_dropout): Dropout(p=0.5, inplace=False)
          (decomp): series_decomp_multi(
            (layer): Linear(in_features=1, out_features=3, bias=True)
          )
        )
        (feed_forward): FeedForward(
          (dense_1): Linear(in_features=64, out_features=256, bias=True)
          (dense_2): Linear(in_features=256, out_features=64, bias=True)
          (LayerNorm): LayerNorm()
          (dropout): Dropout(p=0.5, inplace=False)
          (mask): QueryAdaptiveMasking()
        )
      )
    )
  )
  (LayerNorm): LayerNorm()
  (dropout): Dropout(p=0.5, inplace=False)
  (cross_attens): CrossAttentionBlock(
    (layer): CrossAttention(
      (query): Linear(in_features=64, out_features=64, bias=True)
      (key): Linear(in_features=64, out_features=64, bias=True)
      (value): Linear(in_features=64, out_features=64, bias=True)
      (softmax): Softmax(dim=-1)
      (attn_dropout): Dropout(p=0.5, inplace=False)
      (dense): Linear(in_features=64, out_features=64, bias=True)
      (LayerNorm): LayerNorm((64,), eps=1e-12, elementwise_affine=True)
      (out_dropout): Dropout(p=0.5, inplace=False)
      (mask): QueryAdaptiveMasking()
    )
    (feed_forward): FeedForward(
      (dense_1): Linear(in_features=64, out_features=256, bias=True)
      (dense_2): Linear(in_features=256, out_features=64, bias=True)
      (LayerNorm): LayerNorm()
      (dropout): Dropout(p=0.5, inplace=False)
      (mask): QueryAdaptiveMasking()
    )
  )
  (self_attens): TransformerBlock(
    (layer): MultiHeadAttention(
      (query): Linear(in_features=64, out_features=64, bias=True)
      (key): Linear(in_features=64, out_features=64, bias=True)
      (value): Linear(in_features=64, out_features=64, bias=True)
      (softmax): Softmax(dim=-1)
      (attn_dropout): Dropout(p=0.5, inplace=False)
      (dense): Linear(in_features=64, out_features=64, bias=True)
      (LayerNorm): LayerNorm((64,), eps=1e-12, elementwise_affine=True)
      (out_dropout): Dropout(p=0.5, inplace=False)
      (decomp): series_decomp_multi(
        (layer): Linear(in_features=1, out_features=3, bias=True)
      )
    )
    (feed_forward): FeedForward(
      (dense_1): Linear(in_features=64, out_features=256, bias=True)
      (dense_2): Linear(in_features=256, out_features=64, bias=True)
      (LayerNorm): LayerNorm()
      (dropout): Dropout(p=0.5, inplace=False)
      (mask): QueryAdaptiveMasking()
    )
  )
  (guass): GaussianKernel(
    (W): Linear(in_features=64, out_features=10, bias=True)
    (softmax): Softmax(dim=-1)
  )
  (drop_scale): QueryAdaptiveMasking()
)
2025-02-20 15:28:49,395 - Total Parameters: 1328854
2025-02-20 15:29:41,265 - {'epoch': 0, 'rec_loss': '9.4099'}
2025-02-20 15:29:59,187 - {'Epoch': 0, 'HR@5': '0.0082', 'NDCG@5': '0.0053', 'HR@10': '0.0133', 'NDCG@10': '0.0069', 'HR@20': '0.0215', 'NDCG@20': '0.0090'}
2025-02-20 15:29:59,191 - Validation score increased.  Saving model ...
…
2025-02-20 16:53:51,735 - Namespace(data_dir='./data/', output_dir='output/', data_name='Sports_and_Outdoors', do_eval=False, load_model=None, train_name='Scale_Sports', num_items=10, num_users=35599, lr=0.0005, batch_size=256, epochs=200, no_cuda=False, log_freq=1, patience=10, num_workers=4, seed=42, weight_decay=0.0, adam_beta1=0.9, adam_beta2=0.999, gpu_id='0', variance=5, model_type='hyperrec', max_seq_length=50, hidden_size=64, num_hidden_layers=1, hidden_act='gelu', num_attention_heads=1, attention_probs_dropout_prob=0.5, hidden_dropout_prob=0.5, initializer_range=0.02, scales=[50], start_prob=0.3, end_prob=0.6, cuda_condition=True, data_file='./data/Sports_and_Outdoors.txt', item_size=18358, checkpoint_path='output/Scale_Sports.pt', same_target_path='./data/Sports_and_Outdoors_same_target.npy')
2025-02-20 16:53:55,090 - ScaleRecModel(
  (item_embeddings): Embedding(18358, 64, padding_idx=0)
  (position_embeddings): Embedding(50, 64)
  (item_encoder): TransformerEncoder(
    (blocks): ModuleList(
      (0): TransformerBlock(
        (layer): MultiHeadAttention(
          (query): Linear(in_features=64, out_features=64, bias=True)
          (key): Linear(in_features=64, out_features=64, bias=True)
          (value): Linear(in_features=64, out_features=64, bias=True)
          (softmax): Softmax(dim=-1)
          (attn_dropout): Dropout(p=0.5, inplace=False)
          (dense): Linear(in_features=64, out_features=64, bias=True)
          (LayerNorm): LayerNorm((64,), eps=1e-12, elementwise_affine=True)
          (out_dropout): Dropout(p=0.5, inplace=False)
          (decomp): series_decomp_multi(
            (layer): Linear(in_features=1, out_features=3, bias=True)
          )
        )
        (feed_forward): FeedForward(
          (dense_1): Linear(in_features=64, out_features=256, bias=True)
          (dense_2): Linear(in_features=256, out_features=64, bias=True)
          (LayerNorm): LayerNorm()
          (dropout): Dropout(p=0.5, inplace=False)
          (mask): QueryAdaptiveMasking()
        )
      )
    )
  )
  (LayerNorm): LayerNorm()
  (dropout): Dropout(p=0.5, inplace=False)
  (cross_attens): CrossAttentionBlock(
    (layer): CrossAttention(
      (query): Linear(in_features=64, out_features=64, bias=True)
      (key): Linear(in_features=64, out_features=64, bias=True)
      (value): Linear(in_features=64, out_features=64, bias=True)
      (softmax): Softmax(dim=-1)
      (attn_dropout): Dropout(p=0.5, inplace=False)
      (dense): Linear(in_features=64, out_features=64, bias=True)
      (LayerNorm): LayerNorm((64,), eps=1e-12, elementwise_affine=True)
      (out_dropout): Dropout(p=0.5, inplace=False)
      (mask): QueryAdaptiveMasking()
    )
    (feed_forward): FeedForward(
      (dense_1): Linear(in_features=64, out_features=256, bias=True)
      (dense_2): Linear(in_features=256, out_features=64, bias=True)
      (LayerNorm): LayerNorm()
      (dropout): Dropout(p=0.5, inplace=False)
      (mask): QueryAdaptiveMasking()
    )
  )
  (self_attens): TransformerBlock(
    (layer): MultiHeadAttention(
      (query): Linear(in_features=64, out_features=64, bias=True)
      (key): Linear(in_features=64, out_features=64, bias=True)
      (value): Linear(in_features=64, out_features=64, bias=True)
      (softmax): Softmax(dim=-1)
      (attn_dropout): Dropout(p=0.5, inplace=False)
      (dense): Linear(in_features=64, out_features=64, bias=True)
      (LayerNorm): LayerNorm((64,), eps=1e-12, elementwise_affine=True)
      (out_dropout): Dropout(p=0.5, inplace=False)
      (decomp): series_decomp_multi(
        (layer): Linear(in_features=1, out_features=3, bias=True)
      )
    )
    (feed_forward): FeedForward(
      (dense_1): Linear(in_features=64, out_features=256, bias=True)
      (dense_2): Linear(in_features=256, out_features=64, bias=True)
      (LayerNorm): LayerNorm()
      (dropout): Dropout(p=0.5, inplace=False)
      (mask): QueryAdaptiveMasking()
    )
  )
  (guass): GaussianKernel(
    (W): Linear(in_features=64, out_features=50, bias=True)
    (softmax): Softmax(dim=-1)
  )
  (drop_scale): QueryAdaptiveMasking()
)
2025-02-20 16:53:55,094 - Total Parameters: 1331454
2025-02-20 16:54:21,203 - {'epoch': 0, 'rec_loss': '9.4042'}
2025-02-20 16:54:37,170 - {'Epoch': 0, 'HR@5': '0.0081', 'NDCG@5': '0.0054', 'HR@10': '0.0126', 'NDCG@10': '0.0069', 'HR@20': '0.0229', 'NDCG@20': '0.0094'}
2025-02-20 16:54:37,171 - Validation score increased.  Saving model ...
…
2025-02-20 21:07:30,954 - Namespace(data_dir='./data/', output_dir='output/', data_name='Sports_and_Outdoors', do_eval=False, load_model=None, train_name='Scale_Sports', num_items=10, num_users=35599, lr=0.0005, batch_size=256, epochs=200, no_cuda=False, log_freq=1, patience=10, num_workers=4, seed=42, weight_decay=0.0, adam_beta1=0.9, adam_beta2=0.999, gpu_id='0', variance=5, model_type='hyperrec', max_seq_length=50, hidden_size=64, num_hidden_layers=1, hidden_act='gelu', num_attention_heads=1, attention_probs_dropout_prob=0.5, hidden_dropout_prob=0.5, initializer_range=0.02, scales=[50, 25, 10, 5], start_prob=0.3, end_prob=0.6, cuda_condition=True, data_file='./data/Sports_and_Outdoors.txt', item_size=18358, checkpoint_path='output/Scale_Sports.pt', same_target_path='./data/Sports_and_Outdoors_same_target.npy')
2025-02-20 21:07:33,983 - ScaleRecModel(
  (item_embeddings): Embedding(18358, 64, padding_idx=0)
  (position_embeddings): Embedding(50, 64)
  (item_encoder): TransformerEncoder(
    (blocks): ModuleList(
      (0): TransformerBlock(
        (layer): MultiHeadAttention(
          (query): Linear(in_features=64, out_features=64, bias=True)
          (key): Linear(in_features=64, out_features=64, bias=True)
          (value): Linear(in_features=64, out_features=64, bias=True)
          (softmax): Softmax(dim=-1)
          (attn_dropout): Dropout(p=0.5, inplace=False)
          (dense): Linear(in_features=64, out_features=64, bias=True)
          (LayerNorm): LayerNorm((64,), eps=1e-12, elementwise_affine=True)
          (out_dropout): Dropout(p=0.5, inplace=False)
          (decomp): series_decomp_multi(
            (layer): Linear(in_features=1, out_features=3, bias=True)
          )
        )
        (feed_forward): FeedForward(
          (dense_1): Linear(in_features=64, out_features=256, bias=True)
          (dense_2): Linear(in_features=256, out_features=64, bias=True)
          (LayerNorm): LayerNorm()
          (dropout): Dropout(p=0.5, inplace=False)
          (mask): QueryAdaptiveMasking()
        )
      )
    )
  )
  (LayerNorm): LayerNorm()
  (dropout): Dropout(p=0.5, inplace=False)
  (cross_attens): CrossAttentionBlock(
    (layer): CrossAttention(
      (query): Linear(in_features=64, out_features=64, bias=True)
      (key): Linear(in_features=64, out_features=64, bias=True)
      (value): Linear(in_features=64, out_features=64, bias=True)
      (softmax): Softmax(dim=-1)
      (attn_dropout): Dropout(p=0.5, inplace=False)
      (dense): Linear(in_features=64, out_features=64, bias=True)
      (LayerNorm): LayerNorm((64,), eps=1e-12, elementwise_affine=True)
      (out_dropout): Dropout(p=0.5, inplace=False)
      (mask): QueryAdaptiveMasking()
    )
    (feed_forward): FeedForward(
      (dense_1): Linear(in_features=64, out_features=256, bias=True)
      (dense_2): Linear(in_features=256, out_features=64, bias=True)
      (LayerNorm): LayerNorm()
      (dropout): Dropout(p=0.5, inplace=False)
      (mask): QueryAdaptiveMasking()
    )
  )
  (self_attens): TransformerBlock(
    (layer): MultiHeadAttention(
      (query): Linear(in_features=64, out_features=64, bias=True)
      (key): Linear(in_features=64, out_features=64, bias=True)
      (value): Linear(in_features=64, out_features=64, bias=True)
      (softmax): Softmax(dim=-1)
      (attn_dropout): Dropout(p=0.5, inplace=False)
      (dense): Linear(in_features=64, out_features=64, bias=True)
      (LayerNorm): LayerNorm((64,), eps=1e-12, elementwise_affine=True)
      (out_dropout): Dropout(p=0.5, inplace=False)
      (decomp): series_decomp_multi(
        (layer): Linear(in_features=1, out_features=3, bias=True)
      )
    )
    (feed_forward): FeedForward(
      (dense_1): Linear(in_features=64, out_features=256, bias=True)
      (dense_2): Linear(in_features=256, out_features=64, bias=True)
      (LayerNorm): LayerNorm()
      (dropout): Dropout(p=0.5, inplace=False)
      (mask): QueryAdaptiveMasking()
    )
  )
  (guass): GaussianKernel(
    (W): Linear(in_features=64, out_features=5, bias=True)
    (softmax): Softmax(dim=-1)
  )
  (drop_scale): QueryAdaptiveMasking()
)
2025-02-20 21:07:33,988 - Total Parameters: 1328529
2025-02-20 21:08:39,462 - {'epoch': 0, 'rec_loss': '9.4221'}
2025-02-20 21:08:58,943 - {'Epoch': 0, 'HR@5': '0.0082', 'NDCG@5': '0.0054', 'HR@10': '0.0127', 'NDCG@10': '0.0069', 'HR@20': '0.0221', 'NDCG@20': '0.0092'}
2025-02-20 21:08:58,948 - Validation score increased.  Saving model ...
…
42, weight_decay=0.0, adam_beta1=0.9, adam_beta2=0.999, gpu_id='0', variance=5, model_type='scalerec', max_seq_length=50, hidden_size=64, num_hidden_layers=1, hidden_act='gelu', num_attention_heads=1, attention_probs_dropout_prob=0.5, hidden_dropout_prob=0.5, initializer_range=0.02, scales=[25, 10], kernels=[2, 4, 8, 12], start_prob=0.3, end_prob=0.6, cuda_condition=True, data_file='./data/Sports_and_Outdoors.txt', item_size=18358, checkpoint_path='output/Scale_Sports.pt', same_target_path='./data/Sports_and_Outdoors_same_target.npy')
2025-02-28 21:48:42,040 - ScaleRecModel(
  (item_embeddings): Embedding(18358, 64, padding_idx=0)
  (position_embeddings): Embedding(50, 64)
  (item_encoder): TransformerEncoder(
    (blocks): ModuleList(
      (0): TransformerBlock(
        (layer): MultiHeadAttention(
          (query): Linear(in_features=64, out_features=64, bias=True)
          (key): Linear(in_features=64, out_features=64, bias=True)
          (value): Linear(in_features=64, out_features=64, bias=True)
          (softmax): Softmax(dim=-1)
          (attn_dropout): Dropout(p=0.5, inplace=False)
          (dense): Linear(in_features=64, out_features=64, bias=True)
          (LayerNorm): LayerNorm((64,), eps=1e-12, elementwise_affine=True)
          (out_dropout): Dropout(p=0.5, inplace=False)
          (decomp): series_decomp_multi(
            (layer): Linear(in_features=1, out_features=4, bias=True)
          )
        )
        (feed_forward): FeedForward(
          (dense_1): Linear(in_features=64, out_features=256, bias=True)
          (dense_2): Linear(in_features=256, out_features=64, bias=True)
          (LayerNorm): LayerNorm()
          (dropout): Dropout(p=0.5, inplace=False)
          (mask): QueryAdaptiveMasking()
        )
      )
    )
  )
  (LayerNorm): LayerNorm()
  (dropout): Dropout(p=0.5, inplace=False)
  (cross_attens): CrossAttentionBlock(
    (layer): CrossAttention(
      (query): Linear(in_features=64, out_features=64, bias=True)
      (key): Linear(in_features=64, out_features=64, bias=True)
      (value): Linear(in_features=64, out_features=64, bias=True)
      (softmax): Softmax(dim=-1)
      (attn_dropout): Dropout(p=0.5, inplace=False)
      (dense): Linear(in_features=64, out_features=64, bias=True)
      (LayerNorm): LayerNorm((64,), eps=1e-12, elementwise_affine=True)
      (out_dropout): Dropout(p=0.5, inplace=False)
      (mask): QueryAdaptiveMasking()
    )
    (feed_forward): FeedForward(
      (dense_1): Linear(in_features=64, out_features=256, bias=True)
      (dense_2): Linear(in_features=256, out_features=64, bias=True)
      (LayerNorm): LayerNorm()
      (dropout): Dropout(p=0.5, inplace=False)
      (mask): QueryAdaptiveMasking()
    )
  )
  (self_attens): TransformerBlock(
    (layer): MultiHeadAttention(
      (query): Linear(in_features=64, out_features=64, bias=True)
      (key): Linear(in_features=64, out_features=64, bias=True)
      (value): Linear(in_features=64, out_features=64, bias=True)
      (softmax): Softmax(dim=-1)
      (attn_dropout): Dropout(p=0.5, inplace=False)
      (dense): Linear(in_features=64, out_features=64, bias=True)
      (LayerNorm): LayerNorm((64,), eps=1e-12, elementwise_affine=True)
      (out_dropout): Dropout(p=0.5, inplace=False)
      (decomp): series_decomp_multi(
        (layer): Linear(in_features=1, out_features=4, bias=True)
      )
    )
    (feed_forward): FeedForward(
      (dense_1): Linear(in_features=64, out_features=256, bias=True)
      (dense_2): Linear(in_features=256, out_features=64, bias=True)
      (LayerNorm): LayerNorm()
      (dropout): Dropout(p=0.5, inplace=False)
      (mask): QueryAdaptiveMasking()
    )
  )
  (guass): GaussianKernel(
    (W): Linear(in_features=64, out_features=10, bias=True)
    (softmax): Softmax(dim=-1)
  )
  (drop_scale): QueryAdaptiveMasking()
)
2025-02-28 21:48:42,058 - Total Parameters: 1328858
2025-02-28 21:49:32,086 - {'epoch': 0, 'rec_loss': '9.4012'}
2025-02-28 21:49:52,286 - {'Epoch': 0, 'HR@5': '0.0086', 'NDCG@5': '0.0056', 'HR@10': '0.0126', 'NDCG@10': '0.0068', 'HR@20': '0.0213', 'NDCG@20': '0.0090'}
2025-02-28 21:49:52,291 - Validation score increased.  Saving model ...
…
2025-02-28 23:01:00,036 - Namespace(data_dir='./data/', output_dir='output/', data_name='Sports_and_Outdoors', do_eval=False, load_model=None, train_name='Scale_Sports', num_items=10, num_users=35599, lr=0.0005, batch_size=256, epochs=200, no_cuda=False, log_freq=1, patience=10, num_workers=4, seed=42, weight_decay=0.0, adam_beta1=0.9, adam_beta2=0.999, gpu_id='0', variance=5, model_type='scalerec', max_seq_length=50, hidden_size=64, num_hidden_layers=1, hidden_act='gelu', num_attention_heads=1, attention_probs_dropout_prob=0.5, hidden_dropout_prob=0.5, initializer_range=0.02, scales=[25, 10], kernels=[2, 4], start_prob=0.3, end_prob=0.6, cuda_condition=True, data_file='./data/Sports_and_Outdoors.txt', item_size=18358, checkpoint_path='output/Scale_Sports.pt', same_target_path='./data/Sports_and_Outdoors_same_target.npy')
2025-02-28 23:01:03,158 - ScaleRecModel(
  (item_embeddings): Embedding(18358, 64, padding_idx=0)
  (position_embeddings): Embedding(50, 64)
  (item_encoder): TransformerEncoder(
    (blocks): ModuleList(
      (0): TransformerBlock(
        (layer): MultiHeadAttention(
          (query): Linear(in_features=64, out_features=64, bias=True)
          (key): Linear(in_features=64, out_features=64, bias=True)
          (value): Linear(in_features=64, out_features=64, bias=True)
          (softmax): Softmax(dim=-1)
          (attn_dropout): Dropout(p=0.5, inplace=False)
          (dense): Linear(in_features=64, out_features=64, bias=True)
          (LayerNorm): LayerNorm((64,), eps=1e-12, elementwise_affine=True)
          (out_dropout): Dropout(p=0.5, inplace=False)
          (decomp): series_decomp_multi(
            (layer): Linear(in_features=1, out_features=2, bias=True)
          )
        )
        (feed_forward): FeedForward(
          (dense_1): Linear(in_features=64, out_features=256, bias=True)
          (dense_2): Linear(in_features=256, out_features=64, bias=True)
          (LayerNorm): LayerNorm()
          (dropout): Dropout(p=0.5, inplace=False)
          (mask): QueryAdaptiveMasking()
        )
      )
    )
  )
  (LayerNorm): LayerNorm()
  (dropout): Dropout(p=0.5, inplace=False)
  (cross_attens): CrossAttentionBlock(
    (layer): CrossAttention(
      (query): Linear(in_features=64, out_features=64, bias=True)
      (key): Linear(in_features=64, out_features=64, bias=True)
      (value): Linear(in_features=64, out_features=64, bias=True)
      (softmax): Softmax(dim=-1)
      (attn_dropout): Dropout(p=0.5, inplace=False)
      (dense): Linear(in_features=64, out_features=64, bias=True)
      (LayerNorm): LayerNorm((64,), eps=1e-12, elementwise_affine=True)
      (out_dropout): Dropout(p=0.5, inplace=False)
      (mask): QueryAdaptiveMasking()
    )
    (feed_forward): FeedForward(
      (dense_1): Linear(in_features=64, out_features=256, bias=True)
      (dense_2): Linear(in_features=256, out_features=64, bias=True)
      (LayerNorm): LayerNorm()
      (dropout): Dropout(p=0.5, inplace=False)
      (mask): QueryAdaptiveMasking()
    )
  )
  (self_attens): TransformerBlock(
    (layer): MultiHeadAttention(
      (query): Linear(in_features=64, out_features=64, bias=True)
      (key): Linear(in_features=64, out_features=64, bias=True)
      (value): Linear(in_features=64, out_features=64, bias=True)
      (softmax): Softmax(dim=-1)
      (attn_dropout): Dropout(p=0.5, inplace=False)
      (dense): Linear(in_features=64, out_features=64, bias=True)
      (LayerNorm): LayerNorm((64,), eps=1e-12, elementwise_affine=True)
      (out_dropout): Dropout(p=0.5, inplace=False)
      (decomp): series_decomp_multi(
        (layer): Linear(in_features=1, out_features=2, bias=True)
      )
    )
    (feed_forward): FeedForward(
      (dense_1): Linear(in_features=64, out_features=256, bias=True)
      (dense_2): Linear(in_features=256, out_features=64, bias=True)
      (LayerNorm): LayerNorm()
      (dropout): Dropout(p=0.5, inplace=False)
      (mask): QueryAdaptiveMasking()
    )
  )
  (guass): GaussianKernel(
    (W): Linear(in_features=64, out_features=10, bias=True)
    (softmax): Softmax(dim=-1)
  )
  (drop_scale): QueryAdaptiveMasking()
)
2025-02-28 23:01:03,172 - Total Parameters: 1328850
2025-02-28 23:01:42,912 - {'epoch': 0, 'rec_loss': '9.4030'}
2025-02-28 23:02:00,420 - {'Epoch': 0, 'HR@5': '0.0083', 'NDCG@5': '0.0055', 'HR@10': '0.0126', 'NDCG@10': '0.0069', 'HR@20': '0.0228', 'NDCG@20': '0.0094'}
2025-02-28 23:02:00,424 - Validation score increased.  Saving model ...
…
