…
num_workers=4, seed=42, weight_decay=0.0, adam_beta1=0.9, adam_beta2=0.999, gpu_id='0', variance=5, model_type='scalerec', max_seq_length=50, hidden_size=64, num_hidden_layers=1, hidden_act='gelu', num_attention_heads=1, attention_probs_dropout_prob=0.5, hidden_dropout_prob=0.5, initializer_range=0.02, scales=[50, 25], kernels=[4, 8, 12], start_prob=0.2, end_prob=0.5, cuda_condition=True, data_file='./data/Beauty.txt', item_size=12102, checkpoint_path='output/Scale_Beauty_Ablation.pt', same_target_path='./data/Beauty_same_target.npy')
2025-02-23 15:06:03,135 - ScaleRecModel(
  (item_embeddings): Embedding(12102, 64, padding_idx=0)
  (position_embeddings): Embedding(50, 64)
  (item_encoder): TransformerEncoder(
    (blocks): ModuleList(
      (0): TransformerBlock(
        (layer): MultiHeadAttention(
          (query): Linear(in_features=64, out_features=64, bias=True)
          (key): Linear(in_features=64, out_features=64, bias=True)
          (value): Linear(in_features=64, out_features=64, bias=True)
          (softmax): Softmax(dim=-1)
          (attn_dropout): Dropout(p=0.5, inplace=False)
          (dense): Linear(in_features=64, out_features=64, bias=True)
          (LayerNorm): LayerNorm((64,), eps=1e-12, elementwise_affine=True)
          (out_dropout): Dropout(p=0.5, inplace=False)
          (decomp): series_decomp_multi(
            (layer): Linear(in_features=1, out_features=3, bias=True)
          )
        )
        (feed_forward): FeedForward(
          (dense_1): Linear(in_features=64, out_features=256, bias=True)
          (dense_2): Linear(in_features=256, out_features=64, bias=True)
          (LayerNorm): LayerNorm()
          (dropout): Dropout(p=0.5, inplace=False)
          (mask): QueryAdaptiveMasking()
        )
      )
    )
  )
  (LayerNorm): LayerNorm()
  (dropout): Dropout(p=0.5, inplace=False)
  (cross_attens): CrossAttentionBlock(
    (layer): CrossAttention(
      (query): Linear(in_features=64, out_features=64, bias=True)
      (key): Linear(in_features=64, out_features=64, bias=True)
      (value): Linear(in_features=64, out_features=64, bias=True)
      (softmax): Softmax(dim=-1)
      (attn_dropout): Dropout(p=0.5, inplace=False)
      (dense): Linear(in_features=64, out_features=64, bias=True)
      (LayerNorm): LayerNorm((64,), eps=1e-12, elementwise_affine=True)
      (out_dropout): Dropout(p=0.5, inplace=False)
      (mask): QueryAdaptiveMasking()
    )
    (feed_forward): FeedForward(
      (dense_1): Linear(in_features=64, out_features=256, bias=True)
      (dense_2): Linear(in_features=256, out_features=64, bias=True)
      (LayerNorm): LayerNorm()
      (dropout): Dropout(p=0.5, inplace=False)
      (mask): QueryAdaptiveMasking()
    )
  )
  (self_attens): TransformerBlock(
    (layer): MultiHeadAttention(
      (query): Linear(in_features=64, out_features=64, bias=True)
      (key): Linear(in_features=64, out_features=64, bias=True)
      (value): Linear(in_features=64, out_features=64, bias=True)
      (softmax): Softmax(dim=-1)
      (attn_dropout): Dropout(p=0.5, inplace=False)
      (dense): Linear(in_features=64, out_features=64, bias=True)
      (LayerNorm): LayerNorm((64,), eps=1e-12, elementwise_affine=True)
      (out_dropout): Dropout(p=0.5, inplace=False)
      (decomp): series_decomp_multi(
        (layer): Linear(in_features=1, out_features=3, bias=True)
      )
    )
    (feed_forward): FeedForward(
      (dense_1): Linear(in_features=64, out_features=256, bias=True)
      (dense_2): Linear(in_features=256, out_features=64, bias=True)
      (LayerNorm): LayerNorm()
      (dropout): Dropout(p=0.5, inplace=False)
      (mask): QueryAdaptiveMasking()
    )
  )
  (guass): GaussianKernel(
    (W): Linear(in_features=64, out_features=25, bias=True)
    (softmax): Softmax(dim=-1)
  )
  (drop_scale): QueryAdaptiveMasking()
)
2025-02-23 15:06:03,140 - Total Parameters: 929445
2025-02-23 15:06:33,036 - {'epoch': 0, 'rec_loss': '8.7655'}
2025-02-23 15:06:41,282 - {'Epoch': 0, 'HR@5': '0.0270', 'NDCG@5': '0.0171', 'HR@10': '0.0418', 'NDCG@10': '0.0219', 'HR@20': '0.0615', 'NDCG@20': '0.0268'}
2025-02-23 15:06:41,283 - Validation score increased.  Saving model ...
…
2025-02-23 15:24:57,401 - Namespace(data_dir='./data/', output_dir='output/', data_name='Beauty', do_eval=False, load_model=None, train_name='Scale_Beauty_Ablation', num_items=10, num_users=22364, lr=0.0005, batch_size=256, epochs=200, no_cuda=False, log_freq=1, patience=10, num_workers=4, seed=42, weight_decay=0.0, adam_beta1=0.9, adam_beta2=0.999, gpu_id='0', variance=5, model_type='scalerec', max_seq_length=50, hidden_size=64, num_hidden_layers=1, hidden_act='gelu', num_attention_heads=1, attention_probs_dropout_prob=0.5, hidden_dropout_prob=0.5, initializer_range=0.02, scales=[50], kernels=[4, 8, 12], start_prob=0.2, end_prob=0.5, cuda_condition=True, data_file='./data/Beauty.txt', item_size=12102, checkpoint_path='output/Scale_Beauty_Ablation.pt', same_target_path='./data/Beauty_same_target.npy')
2025-02-23 15:25:05,946 - ScaleRecModel(
  (item_embeddings): Embedding(12102, 64, padding_idx=0)
  (position_embeddings): Embedding(50, 64)
  (item_encoder): TransformerEncoder(
    (blocks): ModuleList(
      (0): TransformerBlock(
        (layer): MultiHeadAttention(
          (query): Linear(in_features=64, out_features=64, bias=True)
          (key): Linear(in_features=64, out_features=64, bias=True)
          (value): Linear(in_features=64, out_features=64, bias=True)
          (softmax): Softmax(dim=-1)
          (attn_dropout): Dropout(p=0.5, inplace=False)
          (dense): Linear(in_features=64, out_features=64, bias=True)
          (LayerNorm): LayerNorm((64,), eps=1e-12, elementwise_affine=True)
          (out_dropout): Dropout(p=0.5, inplace=False)
          (decomp): series_decomp_multi(
            (layer): Linear(in_features=1, out_features=3, bias=True)
          )
        )
        (feed_forward): FeedForward(
          (dense_1): Linear(in_features=64, out_features=256, bias=True)
          (dense_2): Linear(in_features=256, out_features=64, bias=True)
          (LayerNorm): LayerNorm()
          (dropout): Dropout(p=0.5, inplace=False)
          (mask): QueryAdaptiveMasking()
        )
      )
    )
  )
  (LayerNorm): LayerNorm()
  (dropout): Dropout(p=0.5, inplace=False)
  (cross_attens): CrossAttentionBlock(
    (layer): CrossAttention(
      (query): Linear(in_features=64, out_features=64, bias=True)
      (key): Linear(in_features=64, out_features=64, bias=True)
      (value): Linear(in_features=64, out_features=64, bias=True)
      (softmax): Softmax(dim=-1)
      (attn_dropout): Dropout(p=0.5, inplace=False)
      (dense): Linear(in_features=64, out_features=64, bias=True)
      (LayerNorm): LayerNorm((64,), eps=1e-12, elementwise_affine=True)
      (out_dropout): Dropout(p=0.5, inplace=False)
      (mask): QueryAdaptiveMasking()
    )
    (feed_forward): FeedForward(
      (dense_1): Linear(in_features=64, out_features=256, bias=True)
      (dense_2): Linear(in_features=256, out_features=64, bias=True)
      (LayerNorm): LayerNorm()
      (dropout): Dropout(p=0.5, inplace=False)
      (mask): QueryAdaptiveMasking()
    )
  )
  (self_attens): TransformerBlock(
    (layer): MultiHeadAttention(
      (query): Linear(in_features=64, out_features=64, bias=True)
      (key): Linear(in_features=64, out_features=64, bias=True)
      (value): Linear(in_features=64, out_features=64, bias=True)
      (softmax): Softmax(dim=-1)
      (attn_dropout): Dropout(p=0.5, inplace=False)
      (dense): Linear(in_features=64, out_features=64, bias=True)
      (LayerNorm): LayerNorm((64,), eps=1e-12, elementwise_affine=True)
      (out_dropout): Dropout(p=0.5, inplace=False)
      (decomp): series_decomp_multi(
        (layer): Linear(in_features=1, out_features=3, bias=True)
      )
    )
    (feed_forward): FeedForward(
      (dense_1): Linear(in_features=64, out_features=256, bias=True)
      (dense_2): Linear(in_features=256, out_features=64, bias=True)
      (LayerNorm): LayerNorm()
      (dropout): Dropout(p=0.5, inplace=False)
      (mask): QueryAdaptiveMasking()
    )
  )
  (guass): GaussianKernel(
    (W): Linear(in_features=64, out_features=50, bias=True)
    (softmax): Softmax(dim=-1)
  )
  (drop_scale): QueryAdaptiveMasking()
)
2025-02-23 15:25:06,072 - Total Parameters: 931070
2025-02-23 15:25:30,881 - {'epoch': 0, 'rec_loss': '8.8070'}
2025-02-23 15:25:40,012 - {'Epoch': 0, 'HR@5': '0.0207', 'NDCG@5': '0.0128', 'HR@10': '0.0322', 'NDCG@10': '0.0165', 'HR@20': '0.0474', 'NDCG@20': '0.0203'}
2025-02-23 15:25:40,013 - Validation score increased.  Saving model ...
…
