…
=0.0005, batch_size=256, epochs=200, no_cuda=False, log_freq=1, patience=10, num_workers=4, seed=42, weight_decay=0.0, adam_beta1=0.9, adam_beta2=0.999, gpu_id='0', variance=5, model_type='hyperrec', max_seq_length=50, hidden_size=64, num_hidden_layers=1, hidden_act='gelu', num_attention_heads=1, attention_probs_dropout_prob=0.5, hidden_dropout_prob=0.5, initializer_range=0.02, cuda_condition=True, data_file='./data/LastFM.txt', item_size=3647, checkpoint_path='output/Scale_LastFM.pt', same_target_path='./data/LastFM_same_target.npy')
2025-02-16 15:25:08,415 - HyperRecModel(
  (item_embeddings): Embedding(3647, 64, padding_idx=0)
  (position_embeddings): Embedding(50, 64)
  (item_encoder): TransformerEncoder(
    (blocks): ModuleList(
      (0): TransformerBlock(
        (layer): MultiHeadAttention(
          (query): Linear(in_features=64, out_features=64, bias=True)
          (key): Linear(in_features=64, out_features=64, bias=True)
          (value): Linear(in_features=64, out_features=64, bias=True)
          (softmax): Softmax(dim=-1)
          (attn_dropout): Dropout(p=0.5, inplace=False)
          (dense): Linear(in_features=64, out_features=64, bias=True)
          (LayerNorm): LayerNorm((64,), eps=1e-12, elementwise_affine=True)
          (out_dropout): Dropout(p=0.5, inplace=False)
          (decomp): series_decomp_multi(
            (layer): Linear(in_features=1, out_features=3, bias=True)
          )
        )
        (feed_forward): FeedForward(
          (dense_1): Linear(in_features=64, out_features=256, bias=True)
          (dense_2): Linear(in_features=256, out_features=64, bias=True)
          (LayerNorm): LayerNorm()
          (dropout): Dropout(p=0.5, inplace=False)
          (mask): QueryAdaptiveMasking()
        )
      )
    )
  )
  (LayerNorm): LayerNorm()
  (dropout): Dropout(p=0.5, inplace=False)
  (cross_attens): CrossAttentionBlock(
    (layer): CrossAttention(
      (query): Linear(in_features=64, out_features=64, bias=True)
      (key): Linear(in_features=64, out_features=64, bias=True)
      (value): Linear(in_features=64, out_features=64, bias=True)
      (softmax): Softmax(dim=-1)
      (attn_dropout): Dropout(p=0.5, inplace=False)
      (dense): Linear(in_features=64, out_features=64, bias=True)
      (LayerNorm): LayerNorm((64,), eps=1e-12, elementwise_affine=True)
      (out_dropout): Dropout(p=0.5, inplace=False)
      (mask): QueryAdaptiveMasking()
    )
    (feed_forward): FeedForward(
      (dense_1): Linear(in_features=64, out_features=256, bias=True)
      (dense_2): Linear(in_features=256, out_features=64, bias=True)
      (LayerNorm): LayerNorm()
      (dropout): Dropout(p=0.5, inplace=False)
      (mask): QueryAdaptiveMasking()
    )
  )
  (self_attens): TransformerBlock(
    (layer): MultiHeadAttention(
      (query): Linear(in_features=64, out_features=64, bias=True)
      (key): Linear(in_features=64, out_features=64, bias=True)
      (value): Linear(in_features=64, out_features=64, bias=True)
      (softmax): Softmax(dim=-1)
      (attn_dropout): Dropout(p=0.5, inplace=False)
      (dense): Linear(in_features=64, out_features=64, bias=True)
      (LayerNorm): LayerNorm((64,), eps=1e-12, elementwise_affine=True)
      (out_dropout): Dropout(p=0.5, inplace=False)
      (decomp): series_decomp_multi(
        (layer): Linear(in_features=1, out_features=3, bias=True)
      )
    )
    (feed_forward): FeedForward(
      (dense_1): Linear(in_features=64, out_features=256, bias=True)
      (dense_2): Linear(in_features=256, out_features=64, bias=True)
      (LayerNorm): LayerNorm()
      (dropout): Dropout(p=0.5, inplace=False)
      (mask): QueryAdaptiveMasking()
    )
  )
  (guass): GaussianKernel(
    (W): Linear(in_features=64, out_features=25, bias=True)
    (softmax): Softmax(dim=-1)
  )
  (drop_scale): QueryAdaptiveMasking()
)
2025-02-16 15:25:08,419 - Total Parameters: 388325
2025-02-16 15:25:14,097 - {'epoch': 0, 'rec_loss': '8.0336'}
2025-02-16 15:25:14,677 - {'Epoch': 0, 'HR@5': '0.0229', 'NDCG@5': '0.0157', 'HR@10': '0.0339', 'NDCG@10': '0.0191', 'HR@20': '0.0569', 'NDCG@20': '0.0250'}
2025-02-16 15:25:14,678 - Validation score increased.  Saving model ...
…
2025-02-24 21:50:09,128 - Namespace(data_dir='./data/', output_dir='output/', data_name='LastFM', do_eval=False, load_model=None, train_name='Scale_LastFM', num_items=10, num_users=1091, lr=0.0005, batch_size=256, epochs=200, no_cuda=False, log_freq=1, patience=10, num_workers=4, seed=42, weight_decay=0.0, adam_beta1=0.9, adam_beta2=0.999, gpu_id='0', variance=5, model_type='scalerec', max_seq_length=50, hidden_size=64, num_hidden_layers=1, hidden_act='gelu', num_attention_heads=1, attention_probs_dropout_prob=0.5, hidden_dropout_prob=0.5, initializer_range=0.02, scales=[25, 10], kernels=[4, 8, 12], start_prob=0.2, end_prob=0.5, cuda_condition=True, data_file='./data/LastFM.txt', item_size=3647, checkpoint_path='output/Scale_LastFM.pt', same_target_path='./data/LastFM_same_target.npy')
2025-02-24 21:50:11,915 - ScaleRecModel(
  (item_embeddings): Embedding(3647, 64, padding_idx=0)
  (position_embeddings): Embedding(50, 64)
  (item_encoder): TransformerEncoder(
    (blocks): ModuleList(
      (0): TransformerBlock(
        (layer): MultiHeadAttention(
          (query): Linear(in_features=64, out_features=64, bias=True)
          (key): Linear(in_features=64, out_features=64, bias=True)
          (value): Linear(in_features=64, out_features=64, bias=True)
          (softmax): Softmax(dim=-1)
          (attn_dropout): Dropout(p=0.5, inplace=False)
          (dense): Linear(in_features=64, out_features=64, bias=True)
          (LayerNorm): LayerNorm((64,), eps=1e-12, elementwise_affine=True)
          (out_dropout): Dropout(p=0.5, inplace=False)
          (decomp): series_decomp_multi(
            (layer): Linear(in_features=1, out_features=3, bias=True)
          )
        )
        (feed_forward): FeedForward(
          (dense_1): Linear(in_features=64, out_features=256, bias=True)
          (dense_2): Linear(in_features=256, out_features=64, bias=True)
          (LayerNorm): LayerNorm()
          (dropout): Dropout(p=0.5, inplace=False)
          (mask): QueryAdaptiveMasking()
        )
      )
    )
  )
  (LayerNorm): LayerNorm()
  (dropout): Dropout(p=0.5, inplace=False)
  (cross_attens): CrossAttentionBlock(
    (layer): CrossAttention(
      (query): Linear(in_features=64, out_features=64, bias=True)
      (key): Linear(in_features=64, out_features=64, bias=True)
      (value): Linear(in_features=64, out_features=64, bias=True)
      (softmax): Softmax(dim=-1)
      (attn_dropout): Dropout(p=0.5, inplace=False)
      (dense): Linear(in_features=64, out_features=64, bias=True)
      (LayerNorm): LayerNorm((64,), eps=1e-12, elementwise_affine=True)
      (out_dropout): Dropout(p=0.5, inplace=False)
      (mask): QueryAdaptiveMasking()
    )
    (feed_forward): FeedForward(
      (dense_1): Linear(in_features=64, out_features=256, bias=True)
      (dense_2): Linear(in_features=256, out_features=64, bias=True)
      (LayerNorm): LayerNorm()
      (dropout): Dropout(p=0.5, inplace=False)
      (mask): QueryAdaptiveMasking()
    )
  )
  (self_attens): TransformerBlock(
    (layer): MultiHeadAttention(
      (query): Linear(in_features=64, out_features=64, bias=True)
      (key): Linear(in_features=64, out_features=64, bias=True)
      (value): Linear(in_features=64, out_features=64, bias=True)
      (softmax): Softmax(dim=-1)
      (attn_dropout): Dropout(p=0.5, inplace=False)
      (dense): Linear(in_features=64, out_features=64, bias=True)
      (LayerNorm): LayerNorm((64,), eps=1e-12, elementwise_affine=True)
      (out_dropout): Dropout(p=0.5, inplace=False)
      (decomp): series_decomp_multi(
        (layer): Linear(in_features=1, out_features=3, bias=True)
      )
    )
    (feed_forward): FeedForward(
      (dense_1): Linear(in_features=64, out_features=256, bias=True)
      (dense_2): Linear(in_features=256, out_features=64, bias=True)
      (LayerNorm): LayerNorm()
      (dropout): Dropout(p=0.5, inplace=False)
      (mask): QueryAdaptiveMasking()
    )
  )
  (guass): GaussianKernel(
    (W): Linear(in_features=64, out_features=10, bias=True)
    (softmax): Softmax(dim=-1)
  )
  (drop_scale): QueryAdaptiveMasking()
)
2025-02-24 21:50:11,919 - Total Parameters: 387350
2025-02-24 21:50:17,901 - {'epoch': 0, 'rec_loss': '8.0388'}
2025-02-24 21:50:18,655 - {'Epoch': 0, 'HR@5': '0.0202', 'NDCG@5': '0.0143', 'HR@10': '0.0358', 'NDCG@10': '0.0194', 'HR@20': '0.0642', 'NDCG@20': '0.0264'}
2025-02-24 21:50:18,656 - Validation score increased.  Saving model ...
…
2025-02-24 22:11:58,376 - Namespace(data_dir='./data/', output_dir='output/', data_name='LastFM', do_eval=False, load_model=None, train_name='Scale_LastFM', num_items=10, num_users=1091, lr=0.0005, batch_size=256, epochs=200, no_cuda=False, log_freq=1, patience=10, num_workers=4, seed=42, weight_decay=0.0, adam_beta1=0.9, adam_beta2=0.999, gpu_id='0', variance=5, model_type='scalerec', max_seq_length=50, hidden_size=64, num_hidden_layers=1, hidden_act='gelu', num_attention_heads=1, attention_probs_dropout_prob=0.5, hidden_dropout_prob=0.5, initializer_range=0.02, scales=[50, 5], kernels=[4, 8, 12], start_prob=0.2, end_prob=0.5, cuda_condition=True, data_file='./data/LastFM.txt', item_size=3647, checkpoint_path='output/Scale_LastFM.pt', same_target_path='./data/LastFM_same_target.npy')
2025-02-24 22:12:01,163 - ScaleRecModel(
  (item_embeddings): Embedding(3647, 64, padding_idx=0)
  (position_embeddings): Embedding(50, 64)
  (item_encoder): TransformerEncoder(
    (blocks): ModuleList(
      (0): TransformerBlock(
        (layer): MultiHeadAttention(
          (query): Linear(in_features=64, out_features=64, bias=True)
          (key): Linear(in_features=64, out_features=64, bias=True)
          (value): Linear(in_features=64, out_features=64, bias=True)
          (softmax): Softmax(dim=-1)
          (attn_dropout): Dropout(p=0.5, inplace=False)
          (dense): Linear(in_features=64, out_features=64, bias=True)
          (LayerNorm): LayerNorm((64,), eps=1e-12, elementwise_affine=True)
          (out_dropout): Dropout(p=0.5, inplace=False)
          (decomp): series_decomp_multi(
            (layer): Linear(in_features=1, out_features=3, bias=True)
          )
        )
        (feed_forward): FeedForward(
          (dense_1): Linear(in_features=64, out_features=256, bias=True)
          (dense_2): Linear(in_features=256, out_features=64, bias=True)
          (LayerNorm): LayerNorm()
          (dropout): Dropout(p=0.5, inplace=False)
          (mask): QueryAdaptiveMasking()
        )
      )
    )
  )
  (LayerNorm): LayerNorm()
  (dropout): Dropout(p=0.5, inplace=False)
  (cross_attens): CrossAttentionBlock(
    (layer): CrossAttention(
      (query): Linear(in_features=64, out_features=64, bias=True)
      (key): Linear(in_features=64, out_features=64, bias=True)
      (value): Linear(in_features=64, out_features=64, bias=True)
      (softmax): Softmax(dim=-1)
      (attn_dropout): Dropout(p=0.5, inplace=False)
      (dense): Linear(in_features=64, out_features=64, bias=True)
      (LayerNorm): LayerNorm((64,), eps=1e-12, elementwise_affine=True)
      (out_dropout): Dropout(p=0.5, inplace=False)
      (mask): QueryAdaptiveMasking()
    )
    (feed_forward): FeedForward(
      (dense_1): Linear(in_features=64, out_features=256, bias=True)
      (dense_2): Linear(in_features=256, out_features=64, bias=True)
      (LayerNorm): LayerNorm()
      (dropout): Dropout(p=0.5, inplace=False)
      (mask): QueryAdaptiveMasking()
    )
  )
  (self_attens): TransformerBlock(
    (layer): MultiHeadAttention(
      (query): Linear(in_features=64, out_features=64, bias=True)
      (key): Linear(in_features=64, out_features=64, bias=True)
      (value): Linear(in_features=64, out_features=64, bias=True)
      (softmax): Softmax(dim=-1)
      (attn_dropout): Dropout(p=0.5, inplace=False)
      (dense): Linear(in_features=64, out_features=64, bias=True)
      (LayerNorm): LayerNorm((64,), eps=1e-12, elementwise_affine=True)
      (out_dropout): Dropout(p=0.5, inplace=False)
      (decomp): series_decomp_multi(
        (layer): Linear(in_features=1, out_features=3, bias=True)
      )
    )
    (feed_forward): FeedForward(
      (dense_1): Linear(in_features=64, out_features=256, bias=True)
      (dense_2): Linear(in_features=256, out_features=64, bias=True)
      (LayerNorm): LayerNorm()
      (dropout): Dropout(p=0.5, inplace=False)
      (mask): QueryAdaptiveMasking()
    )
  )
  (guass): GaussianKernel(
    (W): Linear(in_features=64, out_features=5, bias=True)
    (softmax): Softmax(dim=-1)
  )
  (drop_scale): QueryAdaptiveMasking()
)
2025-02-24 22:12:01,167 - Total Parameters: 387025
2025-02-24 22:12:07,514 - {'epoch': 0, 'rec_loss': '8.0388'}
2025-02-24 22:12:08,183 - {'Epoch': 0, 'HR@5': '0.0239', 'NDCG@5': '0.0182', 'HR@10': '0.0404', 'NDCG@10': '0.0234', 'HR@20': '0.0615', 'NDCG@20': '0.0287'}
2025-02-24 22:12:08,184 - Validation score increased.  Saving model ...
…
2025-02-27 11:11:57,678 - Namespace(data_dir='./data/', output_dir='output/', data_name='LastFM', do_eval=False, load_model=None, train_name='Scale_LastFM', num_items=10, num_users=1091, lr=0.0005, batch_size=256, epochs=200, no_cuda=False, log_freq=1, patience=10, num_workers=4, seed=42, weight_decay=0.0, adam_beta1=0.9, adam_beta2=0.999, gpu_id='0', variance=5, model_type='scalerec', max_seq_length=50, hidden_size=64, num_hidden_layers=1, hidden_act='gelu', num_attention_heads=1, attention_probs_dropout_prob=0.5, hidden_dropout_prob=0.5, initializer_range=0.02, scales=[25, 10], kernels=[2, 4, 8, 12], start_prob=0.2, end_prob=0.5, cuda_condition=True, data_file='./data/LastFM.txt', item_size=3647, checkpoint_path='output/Scale_LastFM.pt', same_target_path='./data/LastFM_same_target.npy')
2025-02-27 11:12:04,251 - ScaleRecModel(
  (item_embeddings): Embedding(3647, 64, padding_idx=0)
  (position_embeddings): Embedding(50, 64)
  (item_encoder): TransformerEncoder(
    (blocks): ModuleList(
      (0): TransformerBlock(
        (layer): MultiHeadAttention(
          (query): Linear(in_features=64, out_features=64, bias=True)
          (key): Linear(in_features=64, out_features=64, bias=True)
          (value): Linear(in_features=64, out_features=64, bias=True)
          (softmax): Softmax(dim=-1)
          (attn_dropout): Dropout(p=0.5, inplace=False)
          (dense): Linear(in_features=64, out_features=64, bias=True)
          (LayerNorm): LayerNorm((64,), eps=1e-12, elementwise_affine=True)
          (out_dropout): Dropout(p=0.5, inplace=False)
          (decomp): series_decomp_multi(
            (layer): Linear(in_features=1, out_features=4, bias=True)
          )
        )
        (feed_forward): FeedForward(
          (dense_1): Linear(in_features=64, out_features=256, bias=True)
          (dense_2): Linear(in_features=256, out_features=64, bias=True)
          (LayerNorm): LayerNorm()
          (dropout): Dropout(p=0.5, inplace=False)
          (mask): QueryAdaptiveMasking()
        )
      )
    )
  )
  (LayerNorm): LayerNorm()
  (dropout): Dropout(p=0.5, inplace=False)
  (cross_attens): CrossAttentionBlock(
    (layer): CrossAttention(
      (query): Linear(in_features=64, out_features=64, bias=True)
      (key): Linear(in_features=64, out_features=64, bias=True)
      (value): Linear(in_features=64, out_features=64, bias=True)
      (softmax): Softmax(dim=-1)
      (attn_dropout): Dropout(p=0.5, inplace=False)
      (dense): Linear(in_features=64, out_features=64, bias=True)
      (LayerNorm): LayerNorm((64,), eps=1e-12, elementwise_affine=True)
      (out_dropout): Dropout(p=0.5, inplace=False)
      (mask): QueryAdaptiveMasking()
    )
    (feed_forward): FeedForward(
      (dense_1): Linear(in_features=64, out_features=256, bias=True)
      (dense_2): Linear(in_features=256, out_features=64, bias=True)
      (LayerNorm): LayerNorm()
      (dropout): Dropout(p=0.5, inplace=False)
      (mask): QueryAdaptiveMasking()
    )
  )
  (self_attens): TransformerBlock(
    (layer): MultiHeadAttention(
      (query): Linear(in_features=64, out_features=64, bias=True)
      (key): Linear(in_features=64, out_features=64, bias=True)
      (value): Linear(in_features=64, out_features=64, bias=True)
      (softmax): Softmax(dim=-1)
      (attn_dropout): Dropout(p=0.5, inplace=False)
      (dense): Linear(in_features=64, out_features=64, bias=True)
      (LayerNorm): LayerNorm((64,), eps=1e-12, elementwise_affine=True)
      (out_dropout): Dropout(p=0.5, inplace=False)
      (decomp): series_decomp_multi(
        (layer): Linear(in_features=1, out_features=4, bias=True)
      )
    )
    (feed_forward): FeedForward(
      (dense_1): Linear(in_features=64, out_features=256, bias=True)
      (dense_2): Linear(in_features=256, out_features=64, bias=True)
      (LayerNorm): LayerNorm()
      (dropout): Dropout(p=0.5, inplace=False)
      (mask): QueryAdaptiveMasking()
    )
  )
  (guass): GaussianKernel(
    (W): Linear(in_features=64, out_features=10, bias=True)
    (softmax): Softmax(dim=-1)
  )
  (drop_scale): QueryAdaptiveMasking()
)
2025-02-27 11:12:04,261 - Total Parameters: 387354
2025-02-27 11:12:13,871 - {'epoch': 0, 'rec_loss': '8.0362'}
2025-02-27 11:12:14,862 - {'Epoch': 0, 'HR@5': '0.0220', 'NDCG@5': '0.0156', 'HR@10': '0.0339', 'NDCG@10': '0.0195', 'HR@20': '0.0560', 'NDCG@20': '0.0251'}
2025-02-27 11:12:14,863 - Validation score increased.  Saving model ...
…
2025-03-05 16:49:45,650 - Namespace(data_dir='./data/', output_dir='output/', data_name='LastFM', do_eval=False, load_model=None, train_name='Scale_LastFM', num_items=10, num_users=1091, lr=0.0005, batch_size=256, epochs=200, no_cuda=False, log_freq=1, patience=10, num_workers=4, seed=42, weight_decay=0.0, adam_beta1=0.9, adam_beta2=0.999, gpu_id='0', variance=5, model_type='scalerec', max_seq_length=50, hidden_size=64, num_hidden_layers=1, hidden_act='gelu', num_attention_heads=1, attention_probs_dropout_prob=0.5, hidden_dropout_prob=0.5, initializer_range=0.02, scales=[50], kernels=[2, 3, 4], start_prob=0.2, end_prob=0.5, cuda_condition=True, data_file='./data/LastFM.txt', item_size=3647, checkpoint_path='output/Scale_LastFM.pt', same_target_path='./data/LastFM_same_target.npy')
2025-03-05 16:49:50,274 - ScaleRecModel(
  (item_embeddings): Embedding(3647, 64, padding_idx=0)
  (position_embeddings): Embedding(50, 64)
  (item_encoder): TransformerEncoder(
    (blocks): ModuleList(
      (0): TransformerBlock(
        (layer): MultiHeadAttention(
          (query): Linear(in_features=64, out_features=64, bias=True)
          (key): Linear(in_features=64, out_features=64, bias=True)
          (value): Linear(in_features=64, out_features=64, bias=True)
          (softmax): Softmax(dim=-1)
          (attn_dropout): Dropout(p=0.5, inplace=False)
          (dense): Linear(in_features=64, out_features=64, bias=True)
          (LayerNorm): LayerNorm((64,), eps=1e-12, elementwise_affine=True)
          (out_dropout): Dropout(p=0.5, inplace=False)
          (decomp): series_decomp_multi(
            (layer): Linear(in_features=1, out_features=3, bias=True)
          )
        )
        (feed_forward): FeedForward(
          (dense_1): Linear(in_features=64, out_features=256, bias=True)
          (dense_2): Linear(in_features=256, out_features=64, bias=True)
          (LayerNorm): LayerNorm()
          (dropout): Dropout(p=0.5, inplace=False)
          (mask): QueryAdaptiveMasking()
        )
      )
    )
  )
  (LayerNorm): LayerNorm()
  (dropout): Dropout(p=0.5, inplace=False)
  (cross_attens): CrossAttentionBlock(
    (layer): CrossAttention(
      (query): Linear(in_features=64, out_features=64, bias=True)
      (key): Linear(in_features=64, out_features=64, bias=True)
      (value): Linear(in_features=64, out_features=64, bias=True)
      (softmax): Softmax(dim=-1)
      (attn_dropout): Dropout(p=0.5, inplace=False)
      (dense): Linear(in_features=64, out_features=64, bias=True)
      (LayerNorm): LayerNorm((64,), eps=1e-12, elementwise_affine=True)
      (out_dropout): Dropout(p=0.5, inplace=False)
      (mask): QueryAdaptiveMasking()
    )
    (feed_forward): FeedForward(
      (dense_1): Linear(in_features=64, out_features=256, bias=True)
      (dense_2): Linear(in_features=256, out_features=64, bias=True)
      (LayerNorm): LayerNorm()
      (dropout): Dropout(p=0.5, inplace=False)
      (mask): QueryAdaptiveMasking()
    )
  )
  (self_attens): TransformerBlock(
    (layer): MultiHeadAttention(
      (query): Linear(in_features=64, out_features=64, bias=True)
      (key): Linear(in_features=64, out_features=64, bias=True)
      (value): Linear(in_features=64, out_features=64, bias=True)
      (softmax): Softmax(dim=-1)
      (attn_dropout): Dropout(p=0.5, inplace=False)
      (dense): Linear(in_features=64, out_features=64, bias=True)
      (LayerNorm): LayerNorm((64,), eps=1e-12, elementwise_affine=True)
      (out_dropout): Dropout(p=0.5, inplace=False)
      (decomp): series_decomp_multi(
        (layer): Linear(in_features=1, out_features=3, bias=True)
      )
    )
    (feed_forward): FeedForward(
      (dense_1): Linear(in_features=64, out_features=256, bias=True)
      (dense_2): Linear(in_features=256, out_features=64, bias=True)
      (LayerNorm): LayerNorm()
      (dropout): Dropout(p=0.5, inplace=False)
      (mask): QueryAdaptiveMasking()
    )
  )
  (guass): GaussianKernel(
    (W): Linear(in_features=64, out_features=50, bias=True)
    (softmax): Softmax(dim=-1)
  )
  (drop_scale): QueryAdaptiveMasking()
)
2025-03-05 16:49:50,282 - Total Parameters: 389950
2025-03-05 16:49:56,683 - {'epoch': 0, 'rec_loss': '8.0659'}
2025-03-05 16:49:57,649 - {'Epoch': 0, 'HR@5': '0.0229', 'NDCG@5': '0.0165', 'HR@10': '0.0358', 'NDCG@10': '0.0207', 'HR@20': '0.0624', 'NDCG@20': '0.0274'}
2025-03-05 16:49:57,650 - Validation score increased.  Saving model ...
…
