…
 lr=0.0005, batch_size=256, epochs=200, no_cuda=False, log_freq=1, patience=10, num_workers=4, seed=42, weight_decay=0.0, adam_beta1=0.9, adam_beta2=0.999, gpu_id='0', variance=5, model_type='hyperrec', max_seq_length=50, hidden_size=64, num_hidden_layers=1, hidden_act='gelu', num_attention_heads=1, attention_probs_dropout_prob=0.5, hidden_dropout_prob=0.5, initializer_range=0.02, cuda_condition=True, data_file='./data/ML-1M.txt', item_size=3417, checkpoint_path='output/Scale_ML-1M.pt', same_target_path='./data/ML-1M_same_target.npy')
2025-02-16 15:51:22,243 - HyperRecModel(
  (item_embeddings): Embedding(3417, 64, padding_idx=0)
  (position_embeddings): Embedding(50, 64)
  (item_encoder): TransformerEncoder(
    (blocks): ModuleList(
      (0): TransformerBlock(
        (layer): MultiHeadAttention(
          (query): Linear(in_features=64, out_features=64, bias=True)
          (key): Linear(in_features=64, out_features=64, bias=True)
          (value): Linear(in_features=64, out_features=64, bias=True)
          (softmax): Softmax(dim=-1)
          (attn_dropout): Dropout(p=0.5, inplace=False)
          (dense): Linear(in_features=64, out_features=64, bias=True)
          (LayerNorm): LayerNorm((64,), eps=1e-12, elementwise_affine=True)
          (out_dropout): Dropout(p=0.5, inplace=False)
          (decomp): series_decomp_multi(
            (layer): Linear(in_features=1, out_features=3, bias=True)
          )
        )
        (feed_forward): FeedForward(
          (dense_1): Linear(in_features=64, out_features=256, bias=True)
          (dense_2): Linear(in_features=256, out_features=64, bias=True)
          (LayerNorm): LayerNorm()
          (dropout): Dropout(p=0.5, inplace=False)
          (mask): QueryAdaptiveMasking()
        )
      )
    )
  )
  (LayerNorm): LayerNorm()
  (dropout): Dropout(p=0.5, inplace=False)
  (cross_attens): CrossAttentionBlock(
    (layer): CrossAttention(
      (query): Linear(in_features=64, out_features=64, bias=True)
      (key): Linear(in_features=64, out_features=64, bias=True)
      (value): Linear(in_features=64, out_features=64, bias=True)
      (softmax): Softmax(dim=-1)
      (attn_dropout): Dropout(p=0.5, inplace=False)
      (dense): Linear(in_features=64, out_features=64, bias=True)
      (LayerNorm): LayerNorm((64,), eps=1e-12, elementwise_affine=True)
      (out_dropout): Dropout(p=0.5, inplace=False)
      (mask): QueryAdaptiveMasking()
    )
    (feed_forward): FeedForward(
      (dense_1): Linear(in_features=64, out_features=256, bias=True)
      (dense_2): Linear(in_features=256, out_features=64, bias=True)
      (LayerNorm): LayerNorm()
      (dropout): Dropout(p=0.5, inplace=False)
      (mask): QueryAdaptiveMasking()
    )
  )
  (self_attens): TransformerBlock(
    (layer): MultiHeadAttention(
      (query): Linear(in_features=64, out_features=64, bias=True)
      (key): Linear(in_features=64, out_features=64, bias=True)
      (value): Linear(in_features=64, out_features=64, bias=True)
      (softmax): Softmax(dim=-1)
      (attn_dropout): Dropout(p=0.5, inplace=False)
      (dense): Linear(in_features=64, out_features=64, bias=True)
      (LayerNorm): LayerNorm((64,), eps=1e-12, elementwise_affine=True)
      (out_dropout): Dropout(p=0.5, inplace=False)
      (decomp): series_decomp_multi(
        (layer): Linear(in_features=1, out_features=3, bias=True)
      )
    )
    (feed_forward): FeedForward(
      (dense_1): Linear(in_features=64, out_features=256, bias=True)
      (dense_2): Linear(in_features=256, out_features=64, bias=True)
      (LayerNorm): LayerNorm()
      (dropout): Dropout(p=0.5, inplace=False)
      (mask): QueryAdaptiveMasking()
    )
  )
  (guass): GaussianKernel(
    (W): Linear(in_features=64, out_features=25, bias=True)
    (softmax): Softmax(dim=-1)
  )
  (drop_scale): QueryAdaptiveMasking()
)
2025-02-16 15:51:22,247 - Total Parameters: 373605
2025-02-16 15:52:13,151 - {'epoch': 0, 'rec_loss': '7.1420'}
2025-02-16 15:52:14,634 - {'Epoch': 0, 'HR@5': '0.1180', 'NDCG@5': '0.0751', 'HR@10': '0.1816', 'NDCG@10': '0.0955', 'HR@20': '0.2641', 'NDCG@20': '0.1162'}
2025-02-16 15:52:14,636 - Validation score increased.  Saving model ...
…
2025-02-26 10:58:19,246 - Namespace(data_dir='./data/', output_dir='output/', data_name='ML-1M', do_eval=False, load_model=None, train_name='Scale_ML-1M', num_items=10, num_users=6041, lr=0.0005, batch_size=256, epochs=200, no_cuda=False, log_freq=1, patience=10, num_workers=4, seed=42, weight_decay=0.0, adam_beta1=0.9, adam_beta2=0.999, gpu_id='0', variance=5, model_type='scalerec', max_seq_length=50, hidden_size=64, num_hidden_layers=1, hidden_act='gelu', num_attention_heads=1, attention_probs_dropout_prob=0.5, hidden_dropout_prob=0.5, initializer_range=0.02, scales=[25, 10], kernels=[4, 8, 12], start_prob=0.2, end_prob=0.5, cuda_condition=True, data_file='./data/ML-1M.txt', item_size=3417, checkpoint_path='output/Scale_ML-1M.pt', same_target_path='./data/ML-1M_same_target.npy')
2025-02-26 10:58:22,034 - ScaleRecModel(
  (item_embeddings): Embedding(3417, 64, padding_idx=0)
  (position_embeddings): Embedding(50, 64)
  (item_encoder): TransformerEncoder(
    (blocks): ModuleList(
      (0): TransformerBlock(
        (layer): MultiHeadAttention(
          (query): Linear(in_features=64, out_features=64, bias=True)
          (key): Linear(in_features=64, out_features=64, bias=True)
          (value): Linear(in_features=64, out_features=64, bias=True)
          (softmax): Softmax(dim=-1)
          (attn_dropout): Dropout(p=0.5, inplace=False)
          (dense): Linear(in_features=64, out_features=64, bias=True)
          (LayerNorm): LayerNorm((64,), eps=1e-12, elementwise_affine=True)
          (out_dropout): Dropout(p=0.5, inplace=False)
          (decomp): series_decomp_multi(
            (layer): Linear(in_features=1, out_features=3, bias=True)
          )
        )
        (feed_forward): FeedForward(
          (dense_1): Linear(in_features=64, out_features=256, bias=True)
          (dense_2): Linear(in_features=256, out_features=64, bias=True)
          (LayerNorm): LayerNorm()
          (dropout): Dropout(p=0.5, inplace=False)
          (mask): QueryAdaptiveMasking()
        )
      )
    )
  )
  (LayerNorm): LayerNorm()
  (dropout): Dropout(p=0.5, inplace=False)
  (cross_attens): CrossAttentionBlock(
    (layer): CrossAttention(
      (query): Linear(in_features=64, out_features=64, bias=True)
      (key): Linear(in_features=64, out_features=64, bias=True)
      (value): Linear(in_features=64, out_features=64, bias=True)
      (softmax): Softmax(dim=-1)
      (attn_dropout): Dropout(p=0.5, inplace=False)
      (dense): Linear(in_features=64, out_features=64, bias=True)
      (LayerNorm): LayerNorm((64,), eps=1e-12, elementwise_affine=True)
      (out_dropout): Dropout(p=0.5, inplace=False)
      (mask): QueryAdaptiveMasking()
    )
    (feed_forward): FeedForward(
      (dense_1): Linear(in_features=64, out_features=256, bias=True)
      (dense_2): Linear(in_features=256, out_features=64, bias=True)
      (LayerNorm): LayerNorm()
      (dropout): Dropout(p=0.5, inplace=False)
      (mask): QueryAdaptiveMasking()
    )
  )
  (self_attens): TransformerBlock(
    (layer): MultiHeadAttention(
      (query): Linear(in_features=64, out_features=64, bias=True)
      (key): Linear(in_features=64, out_features=64, bias=True)
      (value): Linear(in_features=64, out_features=64, bias=True)
      (softmax): Softmax(dim=-1)
      (attn_dropout): Dropout(p=0.5, inplace=False)
      (dense): Linear(in_features=64, out_features=64, bias=True)
      (LayerNorm): LayerNorm((64,), eps=1e-12, elementwise_affine=True)
      (out_dropout): Dropout(p=0.5, inplace=False)
      (decomp): series_decomp_multi(
        (layer): Linear(in_features=1, out_features=3, bias=True)
      )
    )
    (feed_forward): FeedForward(
      (dense_1): Linear(in_features=64, out_features=256, bias=True)
      (dense_2): Linear(in_features=256, out_features=64, bias=True)
      (LayerNorm): LayerNorm()
      (dropout): Dropout(p=0.5, inplace=False)
      (mask): QueryAdaptiveMasking()
    )
  )
  (guass): GaussianKernel(
    (W): Linear(in_features=64, out_features=10, bias=True)
    (softmax): Softmax(dim=-1)
  )
  (drop_scale): QueryAdaptiveMasking()
)
2025-02-26 10:58:22,038 - Total Parameters: 372630
2025-02-26 10:59:09,095 - {'epoch': 0, 'rec_loss': '7.1122'}
2025-02-26 10:59:10,901 - {'Epoch': 0, 'HR@5': '0.1182', 'NDCG@5': '0.0758', 'HR@10': '0.1785', 'NDCG@10': '0.0953', 'HR@20': '0.2576', 'NDCG@20': '0.1152'}
2025-02-26 10:59:10,903 - Validation score increased.  Saving model ...
…
2025-02-26 11:42:01,777 - Namespace(data_dir='./data/', output_dir='output/', data_name='ML-1M', do_eval=False, load_model=None, train_name='Scale_ML-1M', num_items=10, num_users=6041, lr=0.0005, batch_size=256, epochs=200, no_cuda=False, log_freq=1, patience=10, num_workers=4, seed=42, weight_decay=0.0, adam_beta1=0.9, adam_beta2=0.999, gpu_id='0', variance=5, model_type='scalerec', max_seq_length=50, hidden_size=64, num_hidden_layers=1, hidden_act='gelu', num_attention_heads=1, attention_probs_dropout_prob=0.5, hidden_dropout_prob=0.5, initializer_range=0.02, scales=[25, 5], kernels=[4, 8, 12], start_prob=0.2, end_prob=0.5, cuda_condition=True, data_file='./data/ML-1M.txt', item_size=3417, checkpoint_path='output/Scale_ML-1M.pt', same_target_path='./data/ML-1M_same_target.npy')
2025-02-26 11:42:04,553 - ScaleRecModel(
  (item_embeddings): Embedding(3417, 64, padding_idx=0)
  (position_embeddings): Embedding(50, 64)
  (item_encoder): TransformerEncoder(
    (blocks): ModuleList(
      (0): TransformerBlock(
        (layer): MultiHeadAttention(
          (query): Linear(in_features=64, out_features=64, bias=True)
          (key): Linear(in_features=64, out_features=64, bias=True)
          (value): Linear(in_features=64, out_features=64, bias=True)
          (softmax): Softmax(dim=-1)
          (attn_dropout): Dropout(p=0.5, inplace=False)
          (dense): Linear(in_features=64, out_features=64, bias=True)
          (LayerNorm): LayerNorm((64,), eps=1e-12, elementwise_affine=True)
          (out_dropout): Dropout(p=0.5, inplace=False)
          (decomp): series_decomp_multi(
            (layer): Linear(in_features=1, out_features=3, bias=True)
          )
        )
        (feed_forward): FeedForward(
          (dense_1): Linear(in_features=64, out_features=256, bias=True)
          (dense_2): Linear(in_features=256, out_features=64, bias=True)
          (LayerNorm): LayerNorm()
          (dropout): Dropout(p=0.5, inplace=False)
          (mask): QueryAdaptiveMasking()
        )
      )
    )
  )
  (LayerNorm): LayerNorm()
  (dropout): Dropout(p=0.5, inplace=False)
  (cross_attens): CrossAttentionBlock(
    (layer): CrossAttention(
      (query): Linear(in_features=64, out_features=64, bias=True)
      (key): Linear(in_features=64, out_features=64, bias=True)
      (value): Linear(in_features=64, out_features=64, bias=True)
      (softmax): Softmax(dim=-1)
      (attn_dropout): Dropout(p=0.5, inplace=False)
      (dense): Linear(in_features=64, out_features=64, bias=True)
      (LayerNorm): LayerNorm((64,), eps=1e-12, elementwise_affine=True)
      (out_dropout): Dropout(p=0.5, inplace=False)
      (mask): QueryAdaptiveMasking()
    )
    (feed_forward): FeedForward(
      (dense_1): Linear(in_features=64, out_features=256, bias=True)
      (dense_2): Linear(in_features=256, out_features=64, bias=True)
      (LayerNorm): LayerNorm()
      (dropout): Dropout(p=0.5, inplace=False)
      (mask): QueryAdaptiveMasking()
    )
  )
  (self_attens): TransformerBlock(
    (layer): MultiHeadAttention(
      (query): Linear(in_features=64, out_features=64, bias=True)
      (key): Linear(in_features=64, out_features=64, bias=True)
      (value): Linear(in_features=64, out_features=64, bias=True)
      (softmax): Softmax(dim=-1)
      (attn_dropout): Dropout(p=0.5, inplace=False)
      (dense): Linear(in_features=64, out_features=64, bias=True)
      (LayerNorm): LayerNorm((64,), eps=1e-12, elementwise_affine=True)
      (out_dropout): Dropout(p=0.5, inplace=False)
      (decomp): series_decomp_multi(
        (layer): Linear(in_features=1, out_features=3, bias=True)
      )
    )
    (feed_forward): FeedForward(
      (dense_1): Linear(in_features=64, out_features=256, bias=True)
      (dense_2): Linear(in_features=256, out_features=64, bias=True)
      (LayerNorm): LayerNorm()
      (dropout): Dropout(p=0.5, inplace=False)
      (mask): QueryAdaptiveMasking()
    )
  )
  (guass): GaussianKernel(
    (W): Linear(in_features=64, out_features=5, bias=True)
    (softmax): Softmax(dim=-1)
  )
  (drop_scale): QueryAdaptiveMasking()
)
2025-02-26 11:42:04,557 - Total Parameters: 372305
2025-02-26 11:42:53,175 - {'epoch': 0, 'rec_loss': '7.1221'}
2025-02-26 11:42:54,693 - {'Epoch': 0, 'HR@5': '0.1164', 'NDCG@5': '0.0756', 'HR@10': '0.1757', 'NDCG@10': '0.0947', 'HR@20': '0.2578', 'NDCG@20': '0.1154'}
2025-02-26 11:42:54,694 - Validation score increased.  Saving model ...
…
