…
e=256, epochs=200, no_cuda=False, log_freq=1, patience=10, num_workers=4, seed=42, weight_decay=0.0, adam_beta1=0.9, adam_beta2=0.999, gpu_id='0', variance=5, model_type='hyperrec', max_seq_length=50, hidden_size=64, num_hidden_layers=1, hidden_act='gelu', num_attention_heads=1, attention_probs_dropout_prob=0.5, hidden_dropout_prob=0.5, initializer_range=0.02, scales=[50, 25], cuda_condition=True, data_file='./data/Beauty.txt', item_size=12102, checkpoint_path='output/Scale_Beauty.pt', same_target_path='./data/Beauty_same_target.npy')
2025-02-19 16:36:49,319 - ScaleRecModel(
  (item_embeddings): Embedding(12102, 64, padding_idx=0)
  (position_embeddings): Embedding(50, 64)
  (item_encoder): TransformerEncoder(
    (blocks): ModuleList(
      (0): TransformerBlock(
        (layer): MultiHeadAttention(
          (query): Linear(in_features=64, out_features=64, bias=True)
          (key): Linear(in_features=64, out_features=64, bias=True)
          (value): Linear(in_features=64, out_features=64, bias=True)
          (softmax): Softmax(dim=-1)
          (attn_dropout): Dropout(p=0.5, inplace=False)
          (dense): Linear(in_features=64, out_features=64, bias=True)
          (LayerNorm): LayerNorm((64,), eps=1e-12, elementwise_affine=True)
          (out_dropout): Dropout(p=0.5, inplace=False)
          (decomp): series_decomp_multi(
            (layer): Linear(in_features=1, out_features=3, bias=True)
          )
        )
        (feed_forward): FeedForward(
          (dense_1): Linear(in_features=64, out_features=256, bias=True)
          (dense_2): Linear(in_features=256, out_features=64, bias=True)
          (LayerNorm): LayerNorm()
          (dropout): Dropout(p=0.5, inplace=False)
          (mask): QueryAdaptiveMasking()
        )
      )
    )
  )
  (LayerNorm): LayerNorm()
  (dropout): Dropout(p=0.5, inplace=False)
  (cross_attens): CrossAttentionBlock(
    (layer): CrossAttention(
      (query): Linear(in_features=64, out_features=64, bias=True)
      (key): Linear(in_features=64, out_features=64, bias=True)
      (value): Linear(in_features=64, out_features=64, bias=True)
      (softmax): Softmax(dim=-1)
      (attn_dropout): Dropout(p=0.5, inplace=False)
      (dense): Linear(in_features=64, out_features=64, bias=True)
      (LayerNorm): LayerNorm((64,), eps=1e-12, elementwise_affine=True)
      (out_dropout): Dropout(p=0.5, inplace=False)
      (mask): QueryAdaptiveMasking()
    )
    (feed_forward): FeedForward(
      (dense_1): Linear(in_features=64, out_features=256, bias=True)
      (dense_2): Linear(in_features=256, out_features=64, bias=True)
      (LayerNorm): LayerNorm()
      (dropout): Dropout(p=0.5, inplace=False)
      (mask): QueryAdaptiveMasking()
    )
  )
  (self_attens): TransformerBlock(
    (layer): MultiHeadAttention(
      (query): Linear(in_features=64, out_features=64, bias=True)
      (key): Linear(in_features=64, out_features=64, bias=True)
      (value): Linear(in_features=64, out_features=64, bias=True)
      (softmax): Softmax(dim=-1)
      (attn_dropout): Dropout(p=0.5, inplace=False)
      (dense): Linear(in_features=64, out_features=64, bias=True)
      (LayerNorm): LayerNorm((64,), eps=1e-12, elementwise_affine=True)
      (out_dropout): Dropout(p=0.5, inplace=False)
      (decomp): series_decomp_multi(
        (layer): Linear(in_features=1, out_features=3, bias=True)
      )
    )
    (feed_forward): FeedForward(
      (dense_1): Linear(in_features=64, out_features=256, bias=True)
      (dense_2): Linear(in_features=256, out_features=64, bias=True)
      (LayerNorm): LayerNorm()
      (dropout): Dropout(p=0.5, inplace=False)
      (mask): QueryAdaptiveMasking()
    )
  )
  (guass): GaussianKernel(
    (W): Linear(in_features=64, out_features=25, bias=True)
    (softmax): Softmax(dim=-1)
  )
  (drop_scale): QueryAdaptiveMasking()
)
2025-02-19 16:36:49,332 - Total Parameters: 929445
2025-02-19 16:37:28,601 - {'epoch': 0, 'rec_loss': '8.8325'}
2025-02-19 16:37:38,324 - {'Epoch': 0, 'HR@5': '0.0190', 'NDCG@5': '0.0120', 'HR@10': '0.0305', 'NDCG@10': '0.0157', 'HR@20': '0.0467', 'NDCG@20': '0.0198'}
2025-02-19 16:37:38,329 - Validation score increased.  Saving model ...
…
2025-02-19 21:45:27,729 - Namespace(data_dir='./data/', output_dir='output/', data_name='Beauty', do_eval=False, load_model=None, train_name='Scale_Beauty', num_items=10, num_users=22364, lr=0.0005, batch_size=256, epochs=200, no_cuda=False, log_freq=1, patience=10, num_workers=4, seed=42, weight_decay=0.0, adam_beta1=0.9, adam_beta2=0.999, gpu_id='0', variance=5, model_type='hyperrec', max_seq_length=50, hidden_size=64, num_hidden_layers=1, hidden_act='gelu', num_attention_heads=1, attention_probs_dropout_prob=0.5, hidden_dropout_prob=0.5, initializer_range=0.02, scales=[50, 25, 10], start_prob=0.2, end_prob=0.5, cuda_condition=True, data_file='./data/Beauty.txt', item_size=12102, checkpoint_path='output/Scale_Beauty.pt', same_target_path='./data/Beauty_same_target.npy')
2025-02-19 21:45:30,483 - ScaleRecModel(
  (item_embeddings): Embedding(12102, 64, padding_idx=0)
  (position_embeddings): Embedding(50, 64)
  (item_encoder): TransformerEncoder(
    (blocks): ModuleList(
      (0): TransformerBlock(
        (layer): MultiHeadAttention(
          (query): Linear(in_features=64, out_features=64, bias=True)
          (key): Linear(in_features=64, out_features=64, bias=True)
          (value): Linear(in_features=64, out_features=64, bias=True)
          (softmax): Softmax(dim=-1)
          (attn_dropout): Dropout(p=0.5, inplace=False)
          (dense): Linear(in_features=64, out_features=64, bias=True)
          (LayerNorm): LayerNorm((64,), eps=1e-12, elementwise_affine=True)
          (out_dropout): Dropout(p=0.5, inplace=False)
          (decomp): series_decomp_multi(
            (layer): Linear(in_features=1, out_features=3, bias=True)
          )
        )
        (feed_forward): FeedForward(
          (dense_1): Linear(in_features=64, out_features=256, bias=True)
          (dense_2): Linear(in_features=256, out_features=64, bias=True)
          (LayerNorm): LayerNorm()
          (dropout): Dropout(p=0.5, inplace=False)
          (mask): QueryAdaptiveMasking()
        )
      )
    )
  )
  (LayerNorm): LayerNorm()
  (dropout): Dropout(p=0.5, inplace=False)
  (cross_attens): CrossAttentionBlock(
    (layer): CrossAttention(
      (query): Linear(in_features=64, out_features=64, bias=True)
      (key): Linear(in_features=64, out_features=64, bias=True)
      (value): Linear(in_features=64, out_features=64, bias=True)
      (softmax): Softmax(dim=-1)
      (attn_dropout): Dropout(p=0.5, inplace=False)
      (dense): Linear(in_features=64, out_features=64, bias=True)
      (LayerNorm): LayerNorm((64,), eps=1e-12, elementwise_affine=True)
      (out_dropout): Dropout(p=0.5, inplace=False)
      (mask): QueryAdaptiveMasking()
    )
    (feed_forward): FeedForward(
      (dense_1): Linear(in_features=64, out_features=256, bias=True)
      (dense_2): Linear(in_features=256, out_features=64, bias=True)
      (LayerNorm): LayerNorm()
      (dropout): Dropout(p=0.5, inplace=False)
      (mask): QueryAdaptiveMasking()
    )
  )
  (self_attens): TransformerBlock(
    (layer): MultiHeadAttention(
      (query): Linear(in_features=64, out_features=64, bias=True)
      (key): Linear(in_features=64, out_features=64, bias=True)
      (value): Linear(in_features=64, out_features=64, bias=True)
      (softmax): Softmax(dim=-1)
      (attn_dropout): Dropout(p=0.5, inplace=False)
      (dense): Linear(in_features=64, out_features=64, bias=True)
      (LayerNorm): LayerNorm((64,), eps=1e-12, elementwise_affine=True)
      (out_dropout): Dropout(p=0.5, inplace=False)
      (decomp): series_decomp_multi(
        (layer): Linear(in_features=1, out_features=3, bias=True)
      )
    )
    (feed_forward): FeedForward(
      (dense_1): Linear(in_features=64, out_features=256, bias=True)
      (dense_2): Linear(in_features=256, out_features=64, bias=True)
      (LayerNorm): LayerNorm()
      (dropout): Dropout(p=0.5, inplace=False)
      (mask): QueryAdaptiveMasking()
    )
  )
  (guass): GaussianKernel(
    (W): Linear(in_features=64, out_features=10, bias=True)
    (softmax): Softmax(dim=-1)
  )
  (drop_scale): QueryAdaptiveMasking()
)
2025-02-19 21:45:30,487 - Total Parameters: 928470
2025-02-19 21:46:06,499 - {'epoch': 0, 'rec_loss': '8.8051'}
2025-02-19 21:46:15,780 - {'Epoch': 0, 'HR@5': '0.0240', 'NDCG@5': '0.0156', 'HR@10': '0.0372', 'NDCG@10': '0.0198', 'HR@20': '0.0560', 'NDCG@20': '0.0245'}
2025-02-19 21:46:15,782 - Validation score increased.  Saving model ...
…
2025-02-19 22:39:08,896 - Namespace(data_dir='./data/', output_dir='output/', data_name='Beauty', do_eval=False, load_model=None, train_name='Scale_Beauty', num_items=10, num_users=22364, lr=0.0005, batch_size=256, epochs=200, no_cuda=False, log_freq=1, patience=10, num_workers=4, seed=42, weight_decay=0.0, adam_beta1=0.9, adam_beta2=0.999, gpu_id='0', variance=5, model_type='hyperrec', max_seq_length=50, hidden_size=64, num_hidden_layers=1, hidden_act='gelu', num_attention_heads=1, attention_probs_dropout_prob=0.5, hidden_dropout_prob=0.5, initializer_range=0.02, scales=[50, 25, 10, 5], start_prob=0.2, end_prob=0.5, cuda_condition=True, data_file='./data/Beauty.txt', item_size=12102, checkpoint_path='output/Scale_Beauty.pt', same_target_path='./data/Beauty_same_target.npy')
2025-02-19 22:39:11,660 - ScaleRecModel(
  (item_embeddings): Embedding(12102, 64, padding_idx=0)
  (position_embeddings): Embedding(50, 64)
  (item_encoder): TransformerEncoder(
    (blocks): ModuleList(
      (0): TransformerBlock(
        (layer): MultiHeadAttention(
          (query): Linear(in_features=64, out_features=64, bias=True)
          (key): Linear(in_features=64, out_features=64, bias=True)
          (value): Linear(in_features=64, out_features=64, bias=True)
          (softmax): Softmax(dim=-1)
          (attn_dropout): Dropout(p=0.5, inplace=False)
          (dense): Linear(in_features=64, out_features=64, bias=True)
          (LayerNorm): LayerNorm((64,), eps=1e-12, elementwise_affine=True)
          (out_dropout): Dropout(p=0.5, inplace=False)
          (decomp): series_decomp_multi(
            (layer): Linear(in_features=1, out_features=3, bias=True)
          )
        )
        (feed_forward): FeedForward(
          (dense_1): Linear(in_features=64, out_features=256, bias=True)
          (dense_2): Linear(in_features=256, out_features=64, bias=True)
          (LayerNorm): LayerNorm()
          (dropout): Dropout(p=0.5, inplace=False)
          (mask): QueryAdaptiveMasking()
        )
      )
    )
  )
  (LayerNorm): LayerNorm()
  (dropout): Dropout(p=0.5, inplace=False)
  (cross_attens): CrossAttentionBlock(
    (layer): CrossAttention(
      (query): Linear(in_features=64, out_features=64, bias=True)
      (key): Linear(in_features=64, out_features=64, bias=True)
      (value): Linear(in_features=64, out_features=64, bias=True)
      (softmax): Softmax(dim=-1)
      (attn_dropout): Dropout(p=0.5, inplace=False)
      (dense): Linear(in_features=64, out_features=64, bias=True)
      (LayerNorm): LayerNorm((64,), eps=1e-12, elementwise_affine=True)
      (out_dropout): Dropout(p=0.5, inplace=False)
      (mask): QueryAdaptiveMasking()
    )
    (feed_forward): FeedForward(
      (dense_1): Linear(in_features=64, out_features=256, bias=True)
      (dense_2): Linear(in_features=256, out_features=64, bias=True)
      (LayerNorm): LayerNorm()
      (dropout): Dropout(p=0.5, inplace=False)
      (mask): QueryAdaptiveMasking()
    )
  )
  (self_attens): TransformerBlock(
    (layer): MultiHeadAttention(
      (query): Linear(in_features=64, out_features=64, bias=True)
      (key): Linear(in_features=64, out_features=64, bias=True)
      (value): Linear(in_features=64, out_features=64, bias=True)
      (softmax): Softmax(dim=-1)
      (attn_dropout): Dropout(p=0.5, inplace=False)
      (dense): Linear(in_features=64, out_features=64, bias=True)
      (LayerNorm): LayerNorm((64,), eps=1e-12, elementwise_affine=True)
      (out_dropout): Dropout(p=0.5, inplace=False)
      (decomp): series_decomp_multi(
        (layer): Linear(in_features=1, out_features=3, bias=True)
      )
    )
    (feed_forward): FeedForward(
      (dense_1): Linear(in_features=64, out_features=256, bias=True)
      (dense_2): Linear(in_features=256, out_features=64, bias=True)
      (LayerNorm): LayerNorm()
      (dropout): Dropout(p=0.5, inplace=False)
      (mask): QueryAdaptiveMasking()
    )
  )
  (guass): GaussianKernel(
    (W): Linear(in_features=64, out_features=5, bias=True)
    (softmax): Softmax(dim=-1)
  )
  (drop_scale): QueryAdaptiveMasking()
)
2025-02-19 22:39:11,664 - Total Parameters: 928145
2025-02-19 22:40:00,229 - {'epoch': 0, 'rec_loss': '8.8182'}
2025-02-19 22:40:08,918 - {'Epoch': 0, 'HR@5': '0.0257', 'NDCG@5': '0.0165', 'HR@10': '0.0393', 'NDCG@10': '0.0209', 'HR@20': '0.0583', 'NDCG@20': '0.0256'}
2025-02-19 22:40:08,920 - Validation score increased.  Saving model ...
…
2025-02-27 15:31:29,183 - Namespace(data_dir='./data/', output_dir='output/', data_name='Beauty', do_eval=False, load_model=None, train_name='Scale_Beauty', num_items=10, num_users=22364, lr=0.0005, batch_size=256, epochs=200, no_cuda=False, log_freq=1, patience=10, num_workers=4, seed=42, weight_decay=0.0, adam_beta1=0.9, adam_beta2=0.999, gpu_id='0', variance=5, model_type='scalerec', max_seq_length=50, hidden_size=64, num_hidden_layers=1, hidden_act='gelu', num_attention_heads=1, attention_probs_dropout_prob=0.5, hidden_dropout_prob=0.5, initializer_range=0.02, scales=[50, 25], kernels=[2, 4, 6, 8], start_prob=0.2, end_prob=0.5, cuda_condition=True, data_file='./data/Beauty.txt', item_size=12102, checkpoint_path='output/Scale_Beauty.pt', same_target_path='./data/Beauty_same_target.npy')
2025-02-27 15:31:32,643 - ScaleRecModel(
  (item_embeddings): Embedding(12102, 64, padding_idx=0)
  (position_embeddings): Embedding(50, 64)
  (item_encoder): TransformerEncoder(
    (blocks): ModuleList(
      (0): TransformerBlock(
        (layer): MultiHeadAttention(
          (query): Linear(in_features=64, out_features=64, bias=True)
          (key): Linear(in_features=64, out_features=64, bias=True)
          (value): Linear(in_features=64, out_features=64, bias=True)
          (softmax): Softmax(dim=-1)
          (attn_dropout): Dropout(p=0.5, inplace=False)
          (dense): Linear(in_features=64, out_features=64, bias=True)
          (LayerNorm): LayerNorm((64,), eps=1e-12, elementwise_affine=True)
          (out_dropout): Dropout(p=0.5, inplace=False)
          (decomp): series_decomp_multi(
            (layer): Linear(in_features=1, out_features=4, bias=True)
          )
        )
        (feed_forward): FeedForward(
          (dense_1): Linear(in_features=64, out_features=256, bias=True)
          (dense_2): Linear(in_features=256, out_features=64, bias=True)
          (LayerNorm): LayerNorm()
          (dropout): Dropout(p=0.5, inplace=False)
          (mask): QueryAdaptiveMasking()
        )
      )
    )
  )
  (LayerNorm): LayerNorm()
  (dropout): Dropout(p=0.5, inplace=False)
  (cross_attens): CrossAttentionBlock(
    (layer): CrossAttention(
      (query): Linear(in_features=64, out_features=64, bias=True)
      (key): Linear(in_features=64, out_features=64, bias=True)
      (value): Linear(in_features=64, out_features=64, bias=True)
      (softmax): Softmax(dim=-1)
      (attn_dropout): Dropout(p=0.5, inplace=False)
      (dense): Linear(in_features=64, out_features=64, bias=True)
      (LayerNorm): LayerNorm((64,), eps=1e-12, elementwise_affine=True)
      (out_dropout): Dropout(p=0.5, inplace=False)
      (mask): QueryAdaptiveMasking()
    )
    (feed_forward): FeedForward(
      (dense_1): Linear(in_features=64, out_features=256, bias=True)
      (dense_2): Linear(in_features=256, out_features=64, bias=True)
      (LayerNorm): LayerNorm()
      (dropout): Dropout(p=0.5, inplace=False)
      (mask): QueryAdaptiveMasking()
    )
  )
  (self_attens): TransformerBlock(
    (layer): MultiHeadAttention(
      (query): Linear(in_features=64, out_features=64, bias=True)
      (key): Linear(in_features=64, out_features=64, bias=True)
      (value): Linear(in_features=64, out_features=64, bias=True)
      (softmax): Softmax(dim=-1)
      (attn_dropout): Dropout(p=0.5, inplace=False)
      (dense): Linear(in_features=64, out_features=64, bias=True)
      (LayerNorm): LayerNorm((64,), eps=1e-12, elementwise_affine=True)
      (out_dropout): Dropout(p=0.5, inplace=False)
      (decomp): series_decomp_multi(
        (layer): Linear(in_features=1, out_features=4, bias=True)
      )
    )
    (feed_forward): FeedForward(
      (dense_1): Linear(in_features=64, out_features=256, bias=True)
      (dense_2): Linear(in_features=256, out_features=64, bias=True)
      (LayerNorm): LayerNorm()
      (dropout): Dropout(p=0.5, inplace=False)
      (mask): QueryAdaptiveMasking()
    )
  )
  (guass): GaussianKernel(
    (W): Linear(in_features=64, out_features=25, bias=True)
    (softmax): Softmax(dim=-1)
  )
  (drop_scale): QueryAdaptiveMasking()
)
2025-02-27 15:31:32,654 - Total Parameters: 929449
2025-02-27 15:32:02,641 - {'epoch': 0, 'rec_loss': '8.8331'}
2025-02-27 15:32:12,111 - {'Epoch': 0, 'HR@5': '0.0173', 'NDCG@5': '0.0109', 'HR@10': '0.0279', 'NDCG@10': '0.0143', 'HR@20': '0.0459', 'NDCG@20': '0.0188'}
2025-02-27 15:32:12,114 - Validation score increased.  Saving model ...
…
2025-02-27 16:03:54,803 - Namespace(data_dir='./data/', output_dir='output/', data_name='Beauty', do_eval=False, load_model=None, train_name='Scale_Beauty', num_items=10, num_users=22364, lr=0.0005, batch_size=256, epochs=200, no_cuda=False, log_freq=1, patience=10, num_workers=4, seed=42, weight_decay=0.0, adam_beta1=0.9, adam_beta2=0.999, gpu_id='0', variance=5, model_type='scalerec', max_seq_length=50, hidden_size=64, num_hidden_layers=1, hidden_act='gelu', num_attention_heads=1, attention_probs_dropout_prob=0.5, hidden_dropout_prob=0.5, initializer_range=0.02, scales=[50, 25], kernels=[2], start_prob=0.2, end_prob=0.5, cuda_condition=True, data_file='./data/Beauty.txt', item_size=12102, checkpoint_path='output/Scale_Beauty.pt', same_target_path='./data/Beauty_same_target.npy')
2025-02-27 16:03:57,665 - ScaleRecModel(
  (item_embeddings): Embedding(12102, 64, padding_idx=0)
  (position_embeddings): Embedding(50, 64)
  (item_encoder): TransformerEncoder(
    (blocks): ModuleList(
      (0): TransformerBlock(
        (layer): MultiHeadAttention(
          (query): Linear(in_features=64, out_features=64, bias=True)
          (key): Linear(in_features=64, out_features=64, bias=True)
          (value): Linear(in_features=64, out_features=64, bias=True)
          (softmax): Softmax(dim=-1)
          (attn_dropout): Dropout(p=0.5, inplace=False)
          (dense): Linear(in_features=64, out_features=64, bias=True)
          (LayerNorm): LayerNorm((64,), eps=1e-12, elementwise_affine=True)
          (out_dropout): Dropout(p=0.5, inplace=False)
          (decomp): series_decomp_multi(
            (layer): Linear(in_features=1, out_features=1, bias=True)
          )
        )
        (feed_forward): FeedForward(
          (dense_1): Linear(in_features=64, out_features=256, bias=True)
          (dense_2): Linear(in_features=256, out_features=64, bias=True)
          (LayerNorm): LayerNorm()
          (dropout): Dropout(p=0.5, inplace=False)
          (mask): QueryAdaptiveMasking()
        )
      )
    )
  )
  (LayerNorm): LayerNorm()
  (dropout): Dropout(p=0.5, inplace=False)
  (cross_attens): CrossAttentionBlock(
    (layer): CrossAttention(
      (query): Linear(in_features=64, out_features=64, bias=True)
      (key): Linear(in_features=64, out_features=64, bias=True)
      (value): Linear(in_features=64, out_features=64, bias=True)
      (softmax): Softmax(dim=-1)
      (attn_dropout): Dropout(p=0.5, inplace=False)
      (dense): Linear(in_features=64, out_features=64, bias=True)
      (LayerNorm): LayerNorm((64,), eps=1e-12, elementwise_affine=True)
      (out_dropout): Dropout(p=0.5, inplace=False)
      (mask): QueryAdaptiveMasking()
    )
    (feed_forward): FeedForward(
      (dense_1): Linear(in_features=64, out_features=256, bias=True)
      (dense_2): Linear(in_features=256, out_features=64, bias=True)
      (LayerNorm): LayerNorm()
      (dropout): Dropout(p=0.5, inplace=False)
      (mask): QueryAdaptiveMasking()
    )
  )
  (self_attens): TransformerBlock(
    (layer): MultiHeadAttention(
      (query): Linear(in_features=64, out_features=64, bias=True)
      (key): Linear(in_features=64, out_features=64, bias=True)
      (value): Linear(in_features=64, out_features=64, bias=True)
      (softmax): Softmax(dim=-1)
      (attn_dropout): Dropout(p=0.5, inplace=False)
      (dense): Linear(in_features=64, out_features=64, bias=True)
      (LayerNorm): LayerNorm((64,), eps=1e-12, elementwise_affine=True)
      (out_dropout): Dropout(p=0.5, inplace=False)
      (decomp): series_decomp_multi(
        (layer): Linear(in_features=1, out_features=1, bias=True)
      )
    )
    (feed_forward): FeedForward(
      (dense_1): Linear(in_features=64, out_features=256, bias=True)
      (dense_2): Linear(in_features=256, out_features=64, bias=True)
      (LayerNorm): LayerNorm()
      (dropout): Dropout(p=0.5, inplace=False)
      (mask): QueryAdaptiveMasking()
    )
  )
  (guass): GaussianKernel(
    (W): Linear(in_features=64, out_features=25, bias=True)
    (softmax): Softmax(dim=-1)
  )
  (drop_scale): QueryAdaptiveMasking()
)
2025-02-27 16:03:57,671 - Total Parameters: 929437
2025-02-27 16:04:26,433 - {'epoch': 0, 'rec_loss': '8.8447'}
2025-02-27 16:04:34,541 - {'Epoch': 0, 'HR@5': '0.0184', 'NDCG@5': '0.0121', 'HR@10': '0.0298', 'NDCG@10': '0.0157', 'HR@20': '0.0469', 'NDCG@20': '0.0200'}
2025-02-27 16:04:34,542 - Validation score increased.  Saving model ...
…
2025-02-27 17:25:05,201 - Namespace(data_dir='./data/', output_dir='output/', data_name='Beauty', do_eval=False, load_model=None, train_name='Scale_Beauty', num_items=10, num_users=22364, lr=0.0005, batch_size=256, epochs=200, no_cuda=False, log_freq=1, patience=10, num_workers=4, seed=42, weight_decay=0.0, adam_beta1=0.9, adam_beta2=0.999, gpu_id='0', variance=5, model_type='scalerec', max_seq_length=50, hidden_size=64, num_hidden_layers=1, hidden_act='gelu', num_attention_heads=1, attention_probs_dropout_prob=0.5, hidden_dropout_prob=0.5, initializer_range=0.02, scales=[50], kernels=[4, 8, 12], start_prob=0.2, end_prob=0.5, cuda_condition=True, data_file='./data/Beauty.txt', item_size=12102, checkpoint_path='output/Scale_Beauty.pt', same_target_path='./data/Beauty_same_target.npy')
2025-02-27 17:25:08,268 - ScaleRecModel(
  (item_embeddings): Embedding(12102, 64, padding_idx=0)
  (position_embeddings): Embedding(50, 64)
  (item_encoder): TransformerEncoder(
    (blocks): ModuleList(
      (0): TransformerBlock(
        (layer): MultiHeadAttention(
          (query): Linear(in_features=64, out_features=64, bias=True)
          (key): Linear(in_features=64, out_features=64, bias=True)
          (value): Linear(in_features=64, out_features=64, bias=True)
          (softmax): Softmax(dim=-1)
          (attn_dropout): Dropout(p=0.5, inplace=False)
          (dense): Linear(in_features=64, out_features=64, bias=True)
          (LayerNorm): LayerNorm((64,), eps=1e-12, elementwise_affine=True)
          (out_dropout): Dropout(p=0.5, inplace=False)
          (decomp): series_decomp_multi(
            (layer): Linear(in_features=1, out_features=3, bias=True)
          )
        )
        (feed_forward): FeedForward(
          (dense_1): Linear(in_features=64, out_features=256, bias=True)
          (dense_2): Linear(in_features=256, out_features=64, bias=True)
          (LayerNorm): LayerNorm()
          (dropout): Dropout(p=0.5, inplace=False)
          (mask): QueryAdaptiveMasking()
        )
      )
    )
  )
  (LayerNorm): LayerNorm()
  (dropout): Dropout(p=0.5, inplace=False)
  (cross_attens): CrossAttentionBlock(
    (layer): CrossAttention(
      (query): Linear(in_features=64, out_features=64, bias=True)
      (key): Linear(in_features=64, out_features=64, bias=True)
      (value): Linear(in_features=64, out_features=64, bias=True)
      (softmax): Softmax(dim=-1)
      (attn_dropout): Dropout(p=0.5, inplace=False)
      (dense): Linear(in_features=64, out_features=64, bias=True)
      (LayerNorm): LayerNorm((64,), eps=1e-12, elementwise_affine=True)
      (out_dropout): Dropout(p=0.5, inplace=False)
      (mask): QueryAdaptiveMasking()
    )
    (feed_forward): FeedForward(
      (dense_1): Linear(in_features=64, out_features=256, bias=True)
      (dense_2): Linear(in_features=256, out_features=64, bias=True)
      (LayerNorm): LayerNorm()
      (dropout): Dropout(p=0.5, inplace=False)
      (mask): QueryAdaptiveMasking()
    )
  )
  (self_attens): TransformerBlock(
    (layer): MultiHeadAttention(
      (query): Linear(in_features=64, out_features=64, bias=True)
      (key): Linear(in_features=64, out_features=64, bias=True)
      (value): Linear(in_features=64, out_features=64, bias=True)
      (softmax): Softmax(dim=-1)
      (attn_dropout): Dropout(p=0.5, inplace=False)
      (dense): Linear(in_features=64, out_features=64, bias=True)
      (LayerNorm): LayerNorm((64,), eps=1e-12, elementwise_affine=True)
      (out_dropout): Dropout(p=0.5, inplace=False)
      (decomp): series_decomp_multi(
        (layer): Linear(in_features=1, out_features=3, bias=True)
      )
    )
    (feed_forward): FeedForward(
      (dense_1): Linear(in_features=64, out_features=256, bias=True)
      (dense_2): Linear(in_features=256, out_features=64, bias=True)
      (LayerNorm): LayerNorm()
      (dropout): Dropout(p=0.5, inplace=False)
      (mask): QueryAdaptiveMasking()
    )
  )
  (guass): GaussianKernel(
    (W): Linear(in_features=64, out_features=50, bias=True)
    (softmax): Softmax(dim=-1)
  )
  (drop_scale): QueryAdaptiveMasking()
)
2025-02-27 17:25:08,281 - Total Parameters: 931070
2025-02-27 17:25:28,233 - {'epoch': 0, 'rec_loss': '8.9120'}
2025-02-27 17:25:36,492 - {'Epoch': 0, 'HR@5': '0.0134', 'NDCG@5': '0.0082', 'HR@10': '0.0214', 'NDCG@10': '0.0108', 'HR@20': '0.0348', 'NDCG@20': '0.0141'}
2025-02-27 17:25:36,495 - Validation score increased.  Saving model ...
…
2025-02-27 21:06:16,914 - Namespace(data_dir='./data/', output_dir='output/', data_name='Beauty', do_eval=False, load_model=None, train_name='Scale_Beauty', num_items=10, num_users=22364, lr=0.0005, batch_size=256, epochs=200, no_cuda=False, log_freq=1, patience=10, num_workers=4, seed=42, weight_decay=0.0, adam_beta1=0.9, adam_beta2=0.999, gpu_id='0', variance=5, model_type='scalerec', max_seq_length=50, hidden_size=64, num_hidden_layers=1, hidden_act='gelu', num_attention_heads=1, attention_probs_dropout_prob=0.5, hidden_dropout_prob=0.5, initializer_range=0.02, scales=[50, 25], kernels=[4, 8], start_prob=0.2, end_prob=0.5, cuda_condition=True, data_file='./data/Beauty.txt', item_size=12102, checkpoint_path='output/Scale_Beauty.pt', same_target_path='./data/Beauty_same_target.npy')
2025-02-27 21:06:24,210 - ScaleRecModel(
  (item_embeddings): Embedding(12102, 64, padding_idx=0)
  (position_embeddings): Embedding(50, 64)
  (item_encoder): TransformerEncoder(
    (blocks): ModuleList(
      (0): TransformerBlock(
        (layer): MultiHeadAttention(
          (query): Linear(in_features=64, out_features=64, bias=True)
          (key): Linear(in_features=64, out_features=64, bias=True)
          (value): Linear(in_features=64, out_features=64, bias=True)
          (softmax): Softmax(dim=-1)
          (attn_dropout): Dropout(p=0.5, inplace=False)
          (dense): Linear(in_features=64, out_features=64, bias=True)
          (LayerNorm): LayerNorm((64,), eps=1e-12, elementwise_affine=True)
          (out_dropout): Dropout(p=0.5, inplace=False)
          (decomp): series_decomp_multi(
            (layer): Linear(in_features=1, out_features=2, bias=True)
          )
        )
        (feed_forward): FeedForward(
          (dense_1): Linear(in_features=64, out_features=256, bias=True)
          (dense_2): Linear(in_features=256, out_features=64, bias=True)
          (LayerNorm): LayerNorm()
          (dropout): Dropout(p=0.5, inplace=False)
          (mask): QueryAdaptiveMasking()
        )
      )
    )
  )
  (LayerNorm): LayerNorm()
  (dropout): Dropout(p=0.5, inplace=False)
  (cross_attens): CrossAttentionBlock(
    (layer): CrossAttention(
      (query): Linear(in_features=64, out_features=64, bias=True)
      (key): Linear(in_features=64, out_features=64, bias=True)
      (value): Linear(in_features=64, out_features=64, bias=True)
      (softmax): Softmax(dim=-1)
      (attn_dropout): Dropout(p=0.5, inplace=False)
      (dense): Linear(in_features=64, out_features=64, bias=True)
      (LayerNorm): LayerNorm((64,), eps=1e-12, elementwise_affine=True)
      (out_dropout): Dropout(p=0.5, inplace=False)
      (mask): QueryAdaptiveMasking()
    )
    (feed_forward): FeedForward(
      (dense_1): Linear(in_features=64, out_features=256, bias=True)
      (dense_2): Linear(in_features=256, out_features=64, bias=True)
      (LayerNorm): LayerNorm()
      (dropout): Dropout(p=0.5, inplace=False)
      (mask): QueryAdaptiveMasking()
    )
  )
  (self_attens): TransformerBlock(
    (layer): MultiHeadAttention(
      (query): Linear(in_features=64, out_features=64, bias=True)
      (key): Linear(in_features=64, out_features=64, bias=True)
      (value): Linear(in_features=64, out_features=64, bias=True)
      (softmax): Softmax(dim=-1)
      (attn_dropout): Dropout(p=0.5, inplace=False)
      (dense): Linear(in_features=64, out_features=64, bias=True)
      (LayerNorm): LayerNorm((64,), eps=1e-12, elementwise_affine=True)
      (out_dropout): Dropout(p=0.5, inplace=False)
      (decomp): series_decomp_multi(
        (layer): Linear(in_features=1, out_features=2, bias=True)
      )
    )
    (feed_forward): FeedForward(
      (dense_1): Linear(in_features=64, out_features=256, bias=True)
      (dense_2): Linear(in_features=256, out_features=64, bias=True)
      (LayerNorm): LayerNorm()
      (dropout): Dropout(p=0.5, inplace=False)
      (mask): QueryAdaptiveMasking()
    )
  )
  (guass): GaussianKernel(
    (W): Linear(in_features=64, out_features=25, bias=True)
    (softmax): Softmax(dim=-1)
  )
  (drop_scale): QueryAdaptiveMasking()
)
2025-02-27 21:06:24,217 - Total Parameters: 929441
2025-02-27 21:06:59,063 - {'epoch': 0, 'rec_loss': '8.8280'}
2025-02-27 21:07:08,731 - {'Epoch': 0, 'HR@5': '0.0174', 'NDCG@5': '0.0109', 'HR@10': '0.0292', 'NDCG@10': '0.0146', 'HR@20': '0.0476', 'NDCG@20': '0.0193'}
2025-02-27 21:07:08,732 - Validation score increased.  Saving model ...
…
